AgoraNew/tflite-wasm/segm_full_sparse_v1008.tflite (tflite, 308672 bytes, 68 tensors)

model_1/model/conv2d/Conv2D f2 [16, 3, 3, 3]
00000000: d9c3 67c1 e7bf f6bd 86be a7bd 7447 6e46
00000010: 7245 e0c7 f4c6 3bc6 a2c6 bec6 22c6 7f49
00000020: 1d49 ad48 e93b 303e ec3c 32c3 8cc3 92c2
00000030: cd43 a742 5842 33b0 1034 caaa 33bd e53f
00000040: 2fba 22b8 703c 70b9 66bc d441 f8be 09c3
00000050: a546 19c4 dcbd 9444 7bc1 85ad b540 61c0
00000060: 91be 4a45 3ec4 14b7 0f43 75c2 5538 87b6
00000070: e3b2 6238 a6b5 06b8 fc38 b8b4 cab7 fe20
00000080: c0b6 4fb5 4836 9431 0aba d035 42ae beb9
00000090: 9033 54b2 c9ab 4834 5a2c c3b9 4a33 e2b4
000000a0: 6fbc c243 fb42 9a41 6bb7 c3b6 dbbb a8c2
000000b0: a3c1 c0c1 8d48 5248 2a48 14b7 37b5 0ab4
000000c0: 96c8 32c8 f3c7 7544 c443 1c44 9334 1330
000000d0: 3838 7fc4 21c4 2cc3 7ebb fd33 3238 02be
000000e0: f134 b53b e6bc bc35 bd3b 67bb a936 163b
000000f0: ffbf 3837 ac3d 9dbd 5637 e13c aeba 0c32
00000100: d039 fbbd ec33 003c 79bd cc34 b83a f0ac
00000110: f1a8 7bb3 67b4 72a8 d6a5 f8b5 9daa 472c
00000120: a32d dc29 c9a8 91b8 79b8 dfb1 f0b5 5ab1
00000130: 9022 88b1 b128 b3a9 65b8 15b6 c4af 8bb5
00000140: 0cb0 611d 5c38 5e36 0235 8235 8333 9832
00000150: b1ab 88ae 6eb4 5db3 ecb5 dbb1 8f31 9db2
00000160: 5832 a9b7 98ba 1cb8 d7b3 11b1 c7b2 4eb1
00000170: 5fb5 27ad c733 ef31 b035 46bd cfbd 13bd
00000180: 8f3a 6f39 d439 01bd 24bd a9bc 9028 7c31
00000190: c12e 1242 b442 0542 9a34 a639 8936 3bbe
000001a0: 35be c8bd 7e3c 743d 883c d5bc 76bb 0bbc
000001b0: 9236 62bc e438 6f3c 18c1 cd3e 233a 54be
000001c0: 0d39 523b d5c2 4740 4f41 05c7 4444 9e3f
000001d0: 48c4 7340 423c c0c0 cd3d 1340 32c5 7141
000001e0: 963e a7c2 2f3e 5e4c 634b 3a4b 9ccc 43cc
000001f0: 8bcc 0642 6645 b543 9cc8 2cc9 0ec9 64be
-3.924 -2.701 -1.976 -1.49 -1.631 -1.413 7.453 6.43
5.445 -7.875 -6.953 -6.23 -6.633 -6.742 -6.133 10.99
10.23 9.35 0.989 1.547 1.23 -3.598 -3.773 -3.285
3.9 3.326 3.172 -0.1312 0.254 -0.05304 -1.3 1.974
-0.773 -0.5166 1.109 -0.6797 -1.1 2.914 -1.742 -3.518
6.645 -4.098 -1.465 4.58 -2.74 -0.08624 2.354 -2.19
-1.642 5.29 -4.242 -0.4424 3.53 -3.229 0.5415 -0.408
-0.2152 0.548 -0.353 -0.503 0.623 -0.295 -0.4868 0.00975
-0.4219 -0.3318 0.3926 0.1743 -0.755 0.3633 -0.0978 -0.718
0.2363 -0.1978 -0.06082 0.2676 0.068 -0.72 0.2278 -0.3052
-1.108 3.879 3.49 2.8 -0.4636 -0.4226 -0.982 -3.328
-2.818 -2.875 9.1 8.64 8.33 -0.4424 -0.326 -0.2524
-9.17 -8.39 -7.95 4.457 3.883 4.11 0.286 0.1273
0.5273 -4.496 -4.13 -3.586 -0.9365 0.2496 0.5244 -1.502
0.3088 0.9634 -1.225 0.3584 0.9673 -0.9253 0.4163 0.8857
-1.999 0.4512 1.418 -1.403 0.4585 1.22 -0.835 0.189
0.7266 -1.495 0.2476 1.0 -1.368 0.2998 0.84 -0.07715
-0.0386 -0.2338 -0.2751 -0.03473 -0.0228 -0.373 -0.05167 0.06683
0.0881 0.04578 -0.03738 -0.571 -0.559 -0.1835 -0.371 -0.1672
0.01282 -0.1729 0.03665 -0.04453 -0.5493 -0.3801 -0.12134 -0.3464
-0.1265 0.005253 0.545 0.398 0.313 0.3442 0.2347 0.206
-0.0601 -0.10205 -0.2769 -0.2301 -0.37 -0.183 0.1737 -0.2067
0.1982 -0.4788 -0.824 -0.5137 -0.245 -0.1583 -0.2118 -0.1658
-0.3357 -0.0805 0.243 0.1854 0.3555 -1.318 -1.452 -1.269
0.82 0.679 0.7285 -1.251 -1.285 -1.165 0.03564 0.1714
0.1055 3.035 3.352 3.01 0.2876 0.706 0.4084 -1.558
-1.552 -1.445 1.123 1.363 1.133 -1.208 -0.9326 -1.011
0.4106 -1.096 0.6113 1.108 -2.547 1.7 0.767 -1.582
0.6313 0.915 -3.416 2.139 2.654 -7.02 4.266 1.904
-4.28 2.225 1.064 -2.375 1.45 2.037 -5.195 2.72
1.646 -3.326 1.546 17.47 14.77 14.45 -18.44 -17.05
-18.17 3.012 5.4 3.854 -9.22 -10.34 -10.11 -1.598

model_1/model/batch_normalization/FusedBatchNormV3;model_1/model/depthwise_conv2d_10/depthwise;model_1/model/conv2d/Conv2D f2 [16]
00000000: b33b 1b3a 3a40 5c3f a03f ba41 e841 0c3a
00000010: 5b3d 6cb9 2b30 5c34 1538 e440 b4b9 c5bd
0.9624 0.763 2.113 1.84 1.906 2.863 2.953 0.756
1.339 -0.6777 0.1302 0.2725 0.5103 2.445 -0.713 -1.442

model_1/model/batch_normalization_1/FusedBatchNormV3 f2 [24]
00000000: 213c e53f e1be afb2 79bc 0040 0b3d ed3e
00000010: 8fc0 8640 213e 6134 d33e c7b6 593c 45bd
00000020: 01a6 d83d eec7 bcc2 7539 a638 b641 b440
1.032 1.974 -1.72 -0.2089 -1.118 2.0 1.261 1.731
-2.28 2.262 1.532 0.2737 1.706 -0.4236 1.087 -1.317
-0.02345 1.461 -7.93 -3.367 0.682 0.581 2.855 2.352

model_1/model/batch_normalization_2/FusedBatchNormV3 f2 [24]
00000000: 5628 fbb1 ed2f 9939 403b a13e 003f 20c5
00000010: 9f3b 2325 c93b 92b5 86b3 953c 543c aa3c
00000020: 073b 0fab b73c d324 113e e73b 30b9 102b
0.03387 -0.1869 0.12384 0.6997 0.9062 1.657 1.75 -5.125
0.9526 0.02007 0.973 -0.3481 -0.2351 1.1455 1.082 1.166
0.8784 -0.05515 1.179 0.01884 1.517 0.988 -0.6484 0.05518

model_1/model/batch_normalization_2/FusedBatchNormV3;model_1/model/depthwise_conv2d/depthwise;model_1/model/depthwise_conv2d_9/depthwise f2 [1, 3, 3, 24]
00000000: 5f2d cc3c a7a4 03a7 7ba4 dc98 ca20 7b44
00000010: 8395 0f29 a0ae 0bae 752f 4224 db1e eaa4
00000020: 98a0 8036 999f 9c25 3123 9414 b7b1 6227
00000030: bf30 10c0 61a7 3423 e6a9 fba3 4aa1 0cc4
00000040: 6628 c12c aeb1 bd32 a72e a119 5a9e bba7
00000050: 57a0 13b8 48a5 1d2c 821d 31a1 0bab 1830
00000060: 972d 3035 9da9 34a5 24a8 f3a1 1a20 9c3e
00000070: f124 a829 70ad 1336 e7b0 659b 4b18 4da5
00000080: b2a3 be2d 27a0 bb2a d223 4ba0 3633 7a2f
00000090: 1c32 a2c0 2d25 1524 97a9 a1a4 5fa1 d0c3
000000a0: 3c29 282e 89b0 ea35 7629 c097 bca6 02a9
000000b0: b4a2 42bc cda4 0e2d 63a0 389f 1db8 0530
000000c0: 4435 0ec5 0f32 2f32 3dad 2fab 05ae 9eac
000000d0: 852e 8431 64b4 ec3b 2fbf 86af 2faf fcac
000000e0: ea9a 6abd 25ab cf30 67ad e5a8 15ac 3933
000000f0: dc32 3fc1 3631 012f 68ab 33aa 1aac d145
00000100: 632a 7e2f 94b2 d13a d7c4 21b0 cbad 84aa
00000110: c9a1 793f bfaa e12e 74ab b3a7 0b3a 7231
00000120: df2f 613c 4392 84a0 69a9 7fa5 7398 f83b
00000130: 5328 3c2c 24ab ea36 f741 3fa2 98a4 58a6
00000140: 11a2 9ebb 5b9c c82c ff13 af9d e1b5 2930
00000150: 8e33 8543 5733 b431 b9ac 4eab d1ae b944
00000160: 592c 0230 95b2 843b d542 1cb0 daae 68ab
00000170: 78a0 6abc e1a8 b32f 7ead 2aa8 d6ab cc31
00000180: af31 ba45 ef31 142f acaa b2aa f4ac 19c7
00000190: 9f27 e72d d9b1 9638 6933 b3b0 baad 03a9
000001a0: 8fa4 4041 ecaa 6a2c acab 9fa6 4139 7e2d
0.0839 1.199 -0.01817 -0.02739 -0.0175 -0.002373 0.00935 4.48
-0.001346 0.03952 -0.1035 -0.0944 0.1165 0.01663 0.006695 -0.0192
-0.00897 0.4062 -0.00742 0.02191 0.014046 0.001118 -0.1786 0.02884
0.1483 -2.031 -0.02882 0.01407 -0.04608 -0.01559 -0.01033 -4.047
0.03436 0.0743 -0.1775 0.2106 0.10394 0.002748 -0.006203 -0.0302
-0.00848 -0.5093 -0.02063 0.0643 0.00538 -0.01014 -0.05502 0.1279
0.08734 0.3242 -0.04385 -0.02032 -0.03235 -0.01162 0.00801 1.652
0.0193 0.0442 -0.08496 0.3796 -0.1532 -0.00361 0.002096 -0.0207
-0.01503 0.0897 -0.00811 0.05258 0.015274 -0.008385 0.2253 0.1168
0.1909 -2.316 0.02022 0.01595 -0.04367 -0.01808 -0.01049 -3.906
0.0409 0.0962 -0.1417 0.3696 0.04266 -0.001892 -0.0263 -0.03912
-0.01309 -1.064 -0.01875 0.079 -0.00857 -0.00705 -0.514 0.1256
0.329 -5.055 0.1893 0.1932 -0.08185 -0.05612 -0.09406 -0.07214
0.10187 0.1724 -0.2744 0.99 -1.796 -0.11755 -0.11224 -0.0779
-0.003376 -1.354 -0.05582 0.1503 -0.0844 -0.03824 -0.0638 0.2257
0.2144 -2.623 0.1628 0.10944 -0.05786 -0.04843 -0.0641 5.816
0.0499 0.11707 -0.2056 0.852 -4.84 -0.129 -0.0905 -0.0509
-0.0113 1.868 -0.0527 0.1075 -0.05823 -0.03008 0.7554 0.1702
0.123 1.095 -0.0007644 -0.00882 -0.04227 -0.02147 -0.002172 0.996
0.03378 0.06616 -0.0558 0.4321 2.982 -0.0122 -0.01794 -0.02478
-0.01185 -0.952 -0.004253 0.0747 0.000976 -0.00555 -0.3674 0.13
0.2361 3.76 0.2294 0.1782 -0.0738 -0.05707 -0.1065 4.723
0.06793 0.1252 -0.2057 0.9395 3.416 -0.1284 -0.10706 -0.05786
-0.00873 -1.104 -0.03812 0.1203 -0.0858 -0.03253 -0.06122 0.1812
0.1776 5.727 0.1854 0.1106 -0.05212 -0.0523 -0.0774 -7.098
0.02977 0.0922 -0.1827 0.573 0.2316 -0.1469 -0.0895 -0.03915
-0.0178 2.625 -0.05408 0.069 -0.05994 -0.02586 0.6567 0.0858

model_1/model/conv2d_2/BiasAdd/ReadVariableOp/resource f2 [24]
00000000: 80b4 84b0 e219 ec39 1b31 7830 65ad 3aae
00000010: 49af bfaa 32ac 0f3c 58ad 6e3a 69ab c4b6
00000020: ce3c 02b1 6d30 212f e3ad 0438 5c31 1fad
-0.2812 -0.1411 0.002872 0.74 0.1595 0.1396 -0.0843 -0.0973
-0.11383 -0.0527 -0.06555 1.015 -0.0835 0.8037 -0.0579 -0.4229
1.201 -0.1565 0.1383 0.1114 -0.092 0.502 0.1675 -0.08

model_1/model/conv2d_3/BiasAdd;model_1/model/depthwise_conv2d_9/depthwise;model_1/model/conv2d_3/Conv2D;model_1/model/conv2d_3/BiasAdd/ReadVariableOp/resource f2 [24]
00000000: 352f 10b8 31bb 3eb8 eb3e 80bb c4b6 a9b8
00000010: a7bc 2c39 6d3d 84bd adb4 cc37 ddb8 9b3d
00000020: 3226 f9aa efac a338 abb8 0ebe f4b8 213c
0.1126 -0.508 -0.899 -0.5303 1.7295 -0.9375 -0.4229 -0.5825
-1.163 0.6465 1.356 -1.379 -0.2922 0.4873 -0.608 1.401
0.0242 -0.05447 -0.0771 0.5796 -0.5835 -1.514 -0.619 1.032

model_1/model/batch_normalization_3/FusedBatchNormV3;model_1/model/depthwise_conv2d_9/depthwise;model_1/model/conv2d_4/Conv2D f2 [24]
00000000: ff48 2041 2dbc b844 9dc2 513d 9e46 5e3c
00000010: 5242 c349 89c8 ada9 22c5 c634 33be 67c9
00000020: 1247 71c1 5ec0 28c4 4440 f840 01c5 e941
9.99 2.562 -1.044 4.72 -3.307 1.329 6.617 1.092
3.16 11.52 -9.07 -0.04434 -5.133 0.2983 -1.55 -10.805
7.07 -2.72 -2.184 -4.156 2.133 2.484 -5.004 2.955

model_1/model/batch_normalization_4/FusedBatchNormV3 f2 [88]
00000000: 8b3e 0840 6739 3c38 4ebd 0940 1a41 5d3e
00000010: ef3c be3f fc40 cc3d 423b f3aa aec2 ed3e
00000020: d240 943e 4bc0 503e 533f 493e 4d40 9b3e
00000030: edb8 eb40 773e 21c1 95c0 9c38 4941 3bb8
00000040: 4b42 ebba f033 4ab5 b933 0f3d 513f b53e
00000050: 4343 c840 7542 a23e f13d 48bc 5940 eebd
00000060: f441 4740 fabb 7e41 973c 153f 1a37 6e39
00000070: 7a3f 483f f840 75c1 de3c 8938 4c40 793c
00000080: e03d 663d 9f3d 67bd 3540 2bb5 773e 443d
00000090: 443d 7c3d b234 3dbb 6e3e 413e d938 7041
000000a0: 793d 9136 283c 2b37 4740 a137 1641 2b3f
1.636 2.016 0.6753 0.5293 -1.326 2.018 2.55 1.591
1.233 1.936 2.492 1.449 0.907 -0.0543 -3.34 1.731
2.41 1.645 -2.146 1.578 1.831 1.571 2.15 1.651
-0.6157 2.459 1.616 -2.564 -2.291 0.576 2.643 -0.529
3.146 -0.8647 0.248 -0.3306 0.2413 1.265 1.829 1.677
3.63 2.39 3.229 1.658 1.485 -1.07 2.174 -1.482
2.977 2.139 -0.997 2.746 1.147 1.7705 0.4438 0.6787
1.869 1.82 2.484 -2.729 1.217 0.567 2.148 1.118
1.469 1.35 1.405 -1.351 2.104 -0.323 1.616 1.316
1.316 1.371 0.2935 -0.905 1.607 1.563 0.606 2.719
1.368 0.4104 1.039 0.448 2.139 0.4768 2.543 1.792

model_1/model/batch_normalization_5/FusedBatchNormV3 f2 [88]
00000000: fc9e b7ac 2321 f23b 6ab7 ffa7 db39 52ae
00000010: 343f 7bb3 7aab cf40 e740 053e 63ba 15a1
00000020: 9541 ca38 ea45 d7ab ecac 9220 e236 aab9
00000030: 2143 553d 30b6 ddab 7a40 0146 adbc 1740
00000040: 06b6 3ba9 fcb8 5894 f230 16b5 10af 0daf
00000050: 57c4 ccba 773a 6232 0336 d13c f6ac 0b45
00000060: b741 5a46 d4a9 b03e 0dbe d3b5 3e3a 7c43
00000070: 0cbe f042 9db3 5528 542d 8040 a034 c0b2
00000080: f48a 0025 f3c2 f2ab 3244 91b2 632f 0ba7
00000090: f930 50ad cab7 6dba 0dac 0a2c 4f40 9ab4
000000a0: c724 2cb5 4da8 ba23 2f2e 692d 7bbd 3dbe
-0.00682 -0.07367 0.01003 0.993 -0.4634 -0.03123 0.732 -0.09875
1.801 -0.2338 -0.0584 2.404 2.451 1.505 -0.7983 -0.009926
2.791 0.5986 5.914 -0.06125 -0.0769 0.00893 0.4302 -0.708
3.564 1.333 -0.3867 -0.06143 2.238 6.004 -1.169 2.045
-0.3765 -0.04086 -0.623 -0.0010605 0.1545 -0.3179 -0.11035 -0.11017
-4.34 -0.8496 0.808 0.1995 0.3757 1.204 -0.0775 5.043
2.857 6.35 -0.04553 1.672 -1.513 -0.364 0.7803 3.742
-1.512 3.469 -0.2379 0.03384 0.08325 2.25 0.289 -0.2109
-0.0002122 0.01953 -3.475 -0.06207 4.195 -0.2052 0.1154 -0.02751
0.1554 -0.083 -0.4868 -0.803 -0.0633 0.0631 2.154 -0.2876
0.01866 -0.3232 -0.0336 0.01509 0.0966 0.08453 -1.37 -1.56

model_1/model/batch_normalization_5/FusedBatchNormV3;model_1/model/depthwise_conv2d_1/depthwise;model_1/model/conv2d_27/Conv2D f2 [1, 3, 3, 88]
00000000: 0cb9 7031 4cab f837 ecb5 d8b4 12b4 78a8
00000010: bdab 3833 c82c 07a8 5026 74b1 0b2b be3b
00000020: 27b9 4f2b 4ba3 c5b4 97b5 15b4 f83a bf2c
00000030: a8a4 9636 05b8 4ba9 2d28 59a3 802d b3a4
00000040: edb3 70a9 c935 8aa4 aeb4 d332 85b6 c234
00000050: 2d38 1e36 a331 1f3e 04b6 56ae c42c a019
00000060: 47a9 bfae 0234 ed26 64b8 6d2d 6fba 4621
00000070: ce3e 4625 e3b4 5c2c 8a36 22aa 0a1f cf3a
00000080: 6f20 7ab3 0ab3 baa8 c227 17b7 7dbf b4b4
00000090: ea29 08b0 423b 02b9 7831 55b8 3da8 f9b9
000000a0: a124 b229 1534 2529 5eb6 252c 00af 81b5
000000b0: b833 9eac 9c24 303f 95b5 deb8 59b8 8b3a
000000c0: 94a9 ef3b 4331 abad 78b0 33a9 af2e 913d
000000d0: c2bd f72f a8ac 96b9 65b2 23bb cc41 cf2d
000000e0: e9a4 5d36 b3b6 8ea7 64ac 80a9 5934 3cae
000000f0: 0236 1931 5a36 c42d b9a8 c4bd b0ba 723f
00000100: 0cbc 7e3a d638 db37 2e39 c4ac e839 b9ab
00000110: f0af 08b5 12b0 bbb2 f4b5 bb2c a937 1928
00000120: 2ab8 a9af 2dbb 142e ab3c e6ab 92b5 2333
00000130: 5b2d 71af 771f 7eb6 86ab 3bb4 1d3b 4829
00000140: 3f2d f7ba 3b37 b232 c63c dba7 4232 643a
00000150: 6a2a ca2f d13b 6725 403c 1ab8 a32f 823d
00000160: f837 cdb5 c5aa 76c0 c6ac 7e25 fdb3 ee3a
00000170: d7ae dd35 5328 54ac d42c 8b27 a030 fe35
00000180: 193b 9b2e 62ad 52b5 282b 92b7 f13d 2726
00000190: 69a8 0b3a 7339 e6a9 8ab1 4cab fd33 7db0
000001a0: 2e28 cc32 17b8 ab2c a734 14c1 25b1 063e
000001b0: 5438 5939 3638 31b9 d3b4 5faf 74b6 10af
000001c0: e1ac 36b0 e4b5 b2b0 1b39 bd2b 2b38 1219
000001d0: bfbb e7ac 17ba b82d c13a f39c 9c35 eebd
000001e0: fe23 2735 2b29 09b0 54b0 b136 013d 3234
000001f0: 8325 21b8 e8ba fc37 cb1f 0738 0d35 1bac
-0.631 0.1699 -0.057 0.498 -0.37 -0.3027 -0.2544 -0.0349
-0.06046 0.2256 0.0747 -0.03146 0.02466 -0.1704 0.05502 0.968
-0.644 0.0571 -0.014244 -0.298 -0.3494 -0.2551 0.871 0.07416
-0.01819 0.4116 -0.5024 -0.04135 0.03262 -0.01435 0.08594 -0.01836
-0.2477 -0.04248 0.3616 -0.01773 -0.2925 0.2133 -0.4075 0.2974
0.522 0.3823 0.1761 1.53 -0.376 -0.099 0.07446 0.002747
-0.04123 -0.1054 0.2505 0.02705 -0.549 0.0848 -0.804 0.0103
1.701 0.0206 -0.3054 0.0681 0.4087 -0.0479 0.006874 0.851
0.00866 -0.2336 -0.22 -0.03693 0.0303 -0.443 -1.872 -0.294
0.0462 -0.126 0.907 -0.626 0.1709 -0.5415 -0.0331 -0.7466
0.01808 0.0445 0.2551 0.0402 -0.398 0.06476 -0.1094 -0.344
0.2412 -0.07214 0.018 1.797 -0.3489 -0.6084 -0.5435 0.818
-0.04358 0.9917 0.1644 -0.08856 -0.1396 -0.04062 0.10443 1.392
-1.439 0.12445 -0.07275 -0.698 -0.1998 -0.892 2.898 0.09076
-0.01918 0.3977 -0.4187 -0.02951 -0.0686 -0.04297 0.2717 -0.0974
0.3755 0.1593 0.397 0.0901 -0.0369 -1.441 -0.836 1.861
-1.012 0.8115 0.6045 0.491 0.6475 -0.07446 0.7383 -0.06033
-0.124 -0.3145 -0.1272 -0.2103 -0.372 0.0739 0.4788 0.032
-0.5205 -0.1197 -0.897 0.095 1.167 -0.0617 -0.3481 0.223
0.0837 -0.1163 0.00729 -0.4058 -0.05878 -0.2644 0.889 0.04126
0.082 -0.8706 0.452 0.2092 1.193 -0.03069 0.1956 0.799
0.0501 0.1217 0.977 0.0211 1.0625 -0.5127 0.1193 1.377
0.498 -0.3625 -0.0529 -2.23 -0.0746 0.02145 -0.2496 0.866
-0.1069 0.3665 0.03378 -0.0676 0.07544 0.02946 0.1445 0.3745
0.887 0.1032 -0.0841 -0.3325 0.0559 -0.4731 1.485 0.02403
-0.03445 0.7554 0.681 -0.04608 -0.1731 -0.057 0.2496 -0.1403
0.03265 0.2124 -0.511 0.07294 0.2908 -2.54 -0.1608 1.506
0.541 0.6685 0.5264 -0.649 -0.3015 -0.1152 -0.4033 -0.11035
-0.07623 -0.1316 -0.3682 -0.1467 0.638 0.06046 0.521 0.002476
-0.9683 -0.0766 -0.761 0.08936 0.844 -0.004833 0.3506 -1.482
0.01561 0.322 0.04037 -0.1261 -0.1353 0.4182 1.251 0.2622
0.02153 -0.516 -0.8633 0.499 0.00761 0.5034 0.3157 -0.06415

model_1/model/batch_normalization_6/FusedBatchNormV3;model_1/model/depthwise_conv2d_8/depthwise;model_1/model/conv2d_6/Conv2D f2 [32]
00000000: f3b7 d6c2 08bc 1141 76b2 4ac1 f040 cbb8
00000010: b841 1ac0 6ab3 efbc 893c 4fbf 5142 b043
00000020: db42 c63c 36b4 ebc0 8dc1 8d3e 2b3c a540
00000030: c640 06b3 1742 4d3e 903e ed41 183b 462d
-0.4968 -3.418 -1.008 2.533 -0.2019 -2.645 2.469 -0.599
2.86 -2.05 -0.2317 -1.233 1.134 -1.827 3.158 3.844
3.428 1.193 -0.2632 -2.459 -2.775 1.638 1.042 2.322
2.387 -0.2195 3.045 1.575 1.641 2.963 0.8867 0.0824

model_1/model/batch_normalization_7/FusedBatchNormV3 f2 [104]
00000000: 2237 693e df3c e53d 603e 4c34 f840 f33f
00000010: 7d24 a03f 493c e03f 5740 7140 153d 553f
00000020: 033c 753f 57bf 013d fdb8 1c3f 0841 2838
00000030: 8a3a acba 9b3a 2d3c fc40 8f3a e341 a840
00000040: 5f3d 4ebc 30bc 793e 3d40 e940 f439 15bd
00000050: 7e3f 073f 0541 d33b 703e 88bd 403e 153f
00000060: 3839 f2bd b73f 2a35 6f39 5a42 fe3a 983a
00000070: 3037 a63c b53c 143e 0e3c 4f39 6c39 5b3d
00000080: 9e3d 45be 98b2 3d3e c438 b439 72c2 703d
00000090: da39 762c 1f3f 15c0 693e 253e 7eb8 553d
000000a0: 5b35 ae3d 27b9 52b6 af3d d235 433a 92a9
000000b0: acb0 5639 df35 3c3e 8543 df2f a03c 8f40
000000c0: 5c3d 5b40 6c3c f7b4 3139 e83b d4bb 0cc0
0.4458 1.603 1.218 1.474 1.594 0.2686 2.484 1.987
0.01753 1.906 1.071 1.969 2.17 2.22 1.2705 1.833
1.003 1.864 -1.835 1.251 -0.6235 1.777 2.516 0.5195
0.8174 -0.834 0.8257 1.044 2.492 0.82 2.943 2.328
1.343 -1.076 -1.047 1.618 2.12 2.455 0.744 -1.2705
1.873 1.757 2.51 0.978 1.609 -1.383 1.5625 1.7705
0.6523 -1.486 1.929 0.3228 0.679 3.176 0.874 0.824
0.4492 1.162 1.177 1.52 1.014 0.6636 0.6777 1.339
1.404 -1.567 -0.206 1.56 0.5957 0.713 -3.223 1.359
0.7314 0.0697 1.78 -2.041 1.603 1.536 -0.5615 1.333
0.3347 1.42 -0.644 -0.395 1.421 0.3638 0.7827 -0.04352
-0.146 0.667 0.367 1.559 3.76 0.123 1.156 2.28
1.34 2.178 1.105 -0.3103 0.649 0.9883 -0.9785 -2.023

model_1/model/batch_normalization_8/FusedBatchNormV3;model_1/model/depthwise_conv2d_2/depthwise f2 [1, 3, 3, 104]
00000000: 20b9 9db0 c132 6834 2a34 76af 3e30 d6b2
00000010: 31ae 0030 1930 8ab4 6f2d 4eb7 e7ae 6b28
00000020: abac 51b0 8434 5db3 e72c bb38 84aa ac33
00000030: 28af e2ab 3bb2 7ab6 1c2b daad 76b4 76b2
00000040: 9736 462c 7331 3835 88b7 47ac 7b30 b1af
00000050: 3538 baa9 0130 ebb5 b3bc eaac ebad 49ae
00000060: 3a30 9732 a2ad ff14 21af 66b2 2d24 0334
00000070: 52b7 a125 442d 9ebd 3131 9caf 7a30 8029
00000080: 26a4 74b1 e5b6 34b4 6528 2db1 4cab f5b6
00000090: 65ad d52f 4034 a9b1 85a9 24ac 2e39 039d
000000a0: 1431 e629 6833 f7b4 6bae 9cb1 2f32 f9a4
000000b0: 3d30 cab0 3db3 a1ad 7931 6eaf c6b5 7a2c
000000c0: 7f28 02b1 7ba8 6cad 18af e122 d330 9034
000000d0: 9f32 17b4 bc3a ea3f 2ebb 77a9 4a40 d8af
000000e0: 95b7 29b6 c73c 3740 9ab6 d424 5930 3229
000000f0: 14b0 2335 bf37 79b5 6c33 fc3d 6124 b2bd
00000100: f431 cfa4 872f 90af e0ba c1b5 d841 3732
00000110: a03d aeae d12e 26b8 362f 31b4 c138 0bae
00000120: 5141 d5bb 09bb 2c35 ef34 9931 7ea3 9bb9
00000130: ad31 8ab2 46b8 3fb3 772e 35bb 55b8 e09c
00000140: bfbc 872c c53c 2f3a b933 5830 5e34 3d38
00000150: 08af 5e38 d937 4caf ea2e 66bb 8cb7 b9a6
00000160: 44b9 d233 85ba ff2c 2f37 79b4 52c1 6938
00000170: c629 1c40 dbb4 d23b 3a30 5cb6 3bb4 6329
00000180: 53b4 3e28 2cb4 7427 1f1a 2cb3 70b0 ee37
00000190: 6d3c 74b1 5ea6 a6b2 4dbc 2db4 4db9 8533
000001a0: f639 b8a8 7938 47be 0c34 142d a538 ba2a
000001b0: aaac 7a28 fc34 6936 7aa4 0936 da26 cf31
000001c0: a3ab 47b4 342d 3fb7 b32e 9334 60b1 dba5
000001d0: 0732 d12d 4237 dbaf bb31 42b2 2abe 8db1
000001e0: 3137 392d 97b9 90a0 6030 f0a4 9833 60ae
000001f0: 993b bcad b62e 9db5 a32f 60ad dc33 9535
-0.6406 -0.1442 0.211 0.2754 0.2603 -0.1166 0.1326 -0.2136
-0.09674 0.125 0.128 -0.2837 0.0849 -0.4565 -0.10785 0.03452
-0.07294 -0.1349 0.2822 -0.2301 0.0766 0.5913 -0.0509 0.2397
-0.1118 -0.06158 -0.1947 -0.4048 0.05554 -0.09143 -0.2788 -0.2019
0.4119 0.0668 0.1703 0.3262 -0.4707 -0.06683 0.14 -0.1202
0.526 -0.04474 0.1251 -0.3699 -1.175 -0.0768 -0.09247 -0.0982
0.1321 0.2059 -0.088 0.00122 -0.1114 -0.2 0.01631 0.2507
-0.4575 0.02199 0.0823 -1.404 0.1622 -0.1189 0.1399 0.04297
-0.0162 -0.1704 -0.431 -0.2627 0.03433 -0.1617 -0.057 -0.4348
-0.0843 0.1224 0.2656 -0.1769 -0.04312 -0.0647 0.6475 -0.004894
0.1587 0.04608 0.2314 -0.3103 -0.1003 -0.1753 0.1932 -0.01942
0.1324 -0.1497 -0.2262 -0.08795 0.171 -0.1161 -0.3608 0.06995
0.03513 -0.1565 -0.035 -0.0847 -0.11084 0.013435 0.1508 0.2852
0.2069 -0.2556 0.842 1.979 -0.8975 -0.0427 2.145 -0.12256
-0.4739 -0.385 1.194 2.107 -0.4126 0.01886 0.1359 0.0406
-0.1274 0.321 0.4841 -0.342 0.2319 1.496 0.0171 -1.424
0.186 -0.01878 0.1176 -0.11816 -0.8594 -0.3596 2.922 0.1942
1.406 -0.1044 0.1065 -0.5186 0.1127 -0.262 0.594 -0.0944
2.658 -0.979 -0.8794 0.3232 0.3083 0.1749 -0.01463 -0.7007
0.1774 -0.2043 -0.534 -0.2264 0.101 -0.901 -0.5415 -0.00476
-1.187 0.07074 1.192 0.773 0.2413 0.1357 0.273 0.53
-0.10986 0.546 0.4905 -0.114 0.10803 -0.925 -0.4717 -0.02626
-0.658 0.2444 -0.815 0.07806 0.449 -0.2795 -2.66 0.5513
0.0451 2.055 -0.3035 0.9775 0.1321 -0.3975 -0.2644 0.04208
-0.2703 0.03314 -0.2607 0.02911 0.002989 -0.2241 -0.1387 0.4956
1.106 -0.1704 -0.02487 -0.2078 -1.075 -0.261 -0.6626 0.235
0.745 -0.03687 0.559 -1.569 0.253 0.07935 0.5806 0.05255
-0.0729 0.03497 0.3115 0.4006 -0.01749 0.3772 0.02676 0.1815
-0.05966 -0.2673 0.0813 -0.453 0.1047 0.286 -0.168 -0.02287
0.1884 0.0909 0.4536 -0.12274 0.1791 -0.1956 -1.541 -0.1735
0.4495 0.0816 -0.6987 -0.00891 0.1367 -0.01929 0.2373 -0.0996
0.9497 -0.0896 0.10486 -0.3508 0.1193 -0.084 0.2456 0.3489

model_1/model/batch_normalization_8/FusedBatchNormV3 f2 [104]
00000000: e13e fa3f 3533 eeb0 55b7 7e42 cbb3 8a42
00000010: 5b42 1741 e438 2fae 8a40 4240 d2c0 f842
00000020: b6b1 94c2 c9b4 45c0 d834 aeb5 c040 ea40
00000030: 3fbe 3940 0840 1ead e545 b3bb 36d0 5dbd
00000040: f52c a735 5d21 9138 3131 1f3e 76b1 3799
00000050: 3db5 a6ac 48b2 bfc4 d9c2 abbc 59a7 853c
00000060: 7935 333f b5bc 49ba 4abd 98ac 3242 3ab6
00000070: 2c35 0136 ac2f f3b3 f02e 8038 51a9 c63d
00000080: d143 4abc 86c0 3625 a839 83bd 253d 84b3
00000090: 82b5 f4ba 71b5 8cba 79c1 0f42 93a1 8b2e
000000a0: e032 2d3b 2abc b636 ef33 163e 3f3f 52bd
000000b0: c040 86c0 183f 79a7 cebb b4bc 2438 33a6
000000c0: faa6 3c21 0834 5641 7733 7dad 1940 1d28
1.72 1.994 0.2252 -0.154 -0.4583 3.246 -0.2435 3.27
3.178 2.545 0.6113 -0.0966 2.27 2.129 -2.41 3.484
-0.1785 -3.29 -0.299 -2.135 0.3027 -0.355 2.375 2.457
-1.562 2.111 2.016 -0.07996 5.895 -0.9624 -33.7 -1.341
0.07745 0.3533 0.010475 0.571 0.1622 1.53 -0.1707 -0.002546
-0.3274 -0.07263 -0.1963 -4.746 -3.424 -1.167 -0.0287 1.13
0.342 1.8 -1.177 -0.7856 -1.322 -0.0718 3.098 -0.3892
0.3232 0.3752 0.1199 -0.2484 0.1084 0.5625 -0.04153 1.443
3.908 -1.072 -2.262 0.02036 0.707 -1.378 1.286 -0.2349
-0.3442 -0.869 -0.34 -0.8184 -2.736 3.03 -0.01089 0.10223
0.2148 0.897 -1.041 0.4194 0.2479 1.521 1.812 -1.33
2.375 -2.262 1.773 -0.02919 -0.9756 -1.176 0.5176 -0.02422
-0.02725 0.01022 0.252 2.668 0.2333 -0.08575 2.049 0.03214

model_1/model/batch_normalization_9/FusedBatchNormV3;model_1/model/depthwise_conv2d_8/depthwise;model_1/model/conv2d_8/Conv2D f2 [32]
00000000: 3dbd 953c 7dc3 aa39 3dbd d9b7 f8bd 2fae
00000010: 693c 9ebc f63c 7638 6cb9 343b bd40 ac38
00000020: 793b 34b8 77c0 a9bc c541 20c0 d6bd 38b9
00000030: ee35 44ba 873d ff3f 22be 4130 9543 633b
-1.31 1.1455 -3.744 0.708 -1.31 -0.4905 -1.492 -0.0966
1.103 -1.154 1.24 0.5576 -0.6777 0.9004 2.37 0.584
0.934 -0.5254 -2.232 -1.165 2.885 -2.062 -1.459 -0.6523
0.3706 -0.783 1.382 1.999 -1.533 0.1329 3.791 0.9233

model_1/model/batch_normalization_10/FusedBatchNormV3;model_1/model/conv2d_23/Conv2D;model_1/model/conv2d_9/Conv2D f2 [112]
00000000: a640 49b6 9138 bd38 86bd f830 b23e ff38
00000010: 48b1 2dbd 5541 b43a d8b6 f9a8 0c3d b438
00000020: c133 a2bd 2740 3f3d c23f 17bb ebb1 0bbf
00000030: abc1 09b0 383a 6124 98b7 c440 3ead 41b2
00000040: ff3e 5e39 83bf 7e37 c5bd 753f 5fb8 e435
00000050: 85c1 8040 16b7 183c f4aa 1630 1f3b da35
00000060: 743f ea39 95ac 80b6 223b 1334 4eb8 67a8
00000070: bcbc ecb9 e341 2db3 453c d9b8 083d d6a4
00000080: f33d c9bd 0eb9 84b7 3838 3fb7 7b31 f938
00000090: f7a9 d736 70c0 733b 0cb7 f43f 63b2 20bc
000000a0: dc40 6eb4 d9b8 02b9 4443 42b6 e2b8 69bb
000000b0: 7b41 d3ae 47bf 3642 dd43 35bd 38b7 123b
000000c0: b0bc e80a c829 503d bd3c ce39 483c 8e2d
000000d0: 4c33 e930 11b8 cbb9 8d3a 05bc 76bc 3db7
2.324 -0.3928 0.571 0.5923 -1.381 0.1553 1.674 0.6245
-0.165 -1.294 2.666 0.838 -0.4277 -0.03885 1.262 0.588
0.2423 -1.408 2.076 1.312 1.939 -0.886 -0.1849 -1.761
-2.834 -0.1261 0.7773 0.0171 -0.4746 2.383 -0.0819 -0.1954
1.749 0.671 -1.878 0.4683 -1.442 1.864 -0.5464 0.3682
-2.76 2.25 -0.4429 1.023 -0.05432 0.1277 0.89 0.3657
1.863 0.7393 -0.0716 -0.4062 0.8916 0.2546 -0.538 -0.0344
-1.184 -0.74 2.943 -0.2242 1.067 -0.606 1.258 -0.01889
1.487 -1.446 -0.632 -0.4697 0.5273 -0.453 0.1713 0.6216
-0.0466 0.4275 -2.219 0.931 -0.4404 1.988 -0.1996 -1.031
2.43 -0.2769 -0.606 -0.626 3.633 -0.391 -0.6104 -0.9263
2.74 -0.1066 -1.819 3.105 3.932 -1.302 -0.4512 0.884
-1.172 0.0002108 0.04517 1.328 1.185 0.7256 1.07 0.0868
0.228 0.1534 -0.5083 -0.724 0.819 -1.005 -1.115 -0.4524

model_1/model/batch_normalization_11/FusedBatchNormV3;model_1/model/depthwise_conv2d_3/depthwise;model_1/model/conv2d_23/Conv2D f2 [1, 5, 5, 112]
00000000: 6620 8037 832f c59f d120 2e31 d724 5625
00000010: ee34 eb14 fa29 cb27 55af 24ab 9d29 84aa
00000020: 07a4 582d 3b18 6720 d61d 7ca8 51a6 1526
00000030: 3a9d ce28 dd24 d027 b525 c525 8129 dcae
00000040: 9da5 38aa d1af 5b26 822c fb8f dcac 9334
00000050: 369c 5221 34b1 921e b521 5122 0ead b4a9
00000060: b818 05aa 281c 4ab4 1528 d420 001e ed32
00000070: 1db4 11ad 10ab 6eb3 8ea6 b92e 621e 6fc1
00000080: c422 9aa4 5729 00a6 b9a4 42a5 ca39 2f29
00000090: 4122 ba28 3ea9 ff21 7c30 a59a 652d 7419
000000a0: 1724 b2a4 1ab0 18b4 db18 931b 90b4 c920
000000b0: 5ba7 aa2d 9b33 8aa6 41ac 5930 2390 d6ad
000000c0: 2d21 911b a527 079f 06a0 98a9 0895 1f32
000000d0: 9f2c d7a7 2718 3da7 fb98 8e1c c19e 2131
000000e0: 8d25 7eb5 6214 ff28 9aa3 e92f 4d24 d7ac
000000f0: 2cad 4f28 1c25 649f 56b9 13aa 6e26 abac
00000100: 41b1 e5ae e0b6 2d19 7527 1cb0 2dac 2427
00000110: 25a6 4caa 532c 792a 2708 9123 ac28 adb1
00000120: 6aa4 452d dfb5 34b0 3f29 2b26 69b1 4e2f
00000130: 53a6 af20 3830 221f 6da9 76a1 72ad 3ab5
00000140: 0121 5623 e61a ecb0 bc28 00a6 97a8 d035
00000150: 04b7 d921 6ca1 7631 14a6 1ab2 a829 77bc
00000160: 169c 22ac 912d 89ad fea5 a5ab afaf 7119
00000170: 0429 4829 b2b1 2da3 fa2c 2911 a721 279c
00000180: dfa0 52a6 bfad d8b0 0da0 1aae 76b6 d01c
00000190: 930c a41a 9337 59a4 22b0 a132 d422 7cae
000001a0: 7323 1723 ea9a 5730 efa5 21a8 97a5 5f2e
000001b0: 70a8 eea6 1b1a 4fa7 d01f 50a6 84a2 6f35
000001c0: 1e9f 7f37 91b2 9d2b 28a9 6a2e ca25 c0af
000001d0: 072d 2924 959c 8d2d b5b7 dcb0 dc2c 242c
000001e0: 1bad 63b4 942d 079b fc29 aab2 459d fc9c
000001f0: 0ea9 e7ac 1a28 7f2b d423 4bac 13b1 af2f
0.00859 0.4688 0.1174 -0.007587 0.00941 0.1619 0.0189 0.02084
0.308 0.001201 0.0467 0.03044 -0.11456 -0.0558 0.04385 -0.0509
-0.01573 0.0835 0.002066 0.0086 0.0057 -0.03503 -0.02467 0.02376
-0.005104 0.03754 0.019 0.03052 0.0223 0.02254 0.043 -0.1072
-0.02193 -0.04858 -0.12213 0.02483 0.07043 -0.000487 -0.0759 0.286
-0.004112 0.01039 -0.1626 0.006416 0.01115 0.01234 -0.079 -0.04456
0.002304 -0.04703 0.00406 -0.268 0.0319 0.00943 0.00586 0.2164
-0.257 -0.07916 -0.05518 -0.2322 -0.0256 0.10504 0.006233 -2.717
0.013214 -0.01797 0.04172 -0.02344 -0.01845 -0.02054 0.7236 0.0405
0.012215 0.03693 -0.04095 0.01171 0.1401 -0.003244 0.0843 0.002663
0.01598 -0.01834 -0.1282 -0.2559 0.00237 0.003698 -0.2852 0.009346
-0.02873 0.0885 0.2377 -0.02554 -0.06647 0.1359 -0.000505 -0.0912
0.01011 0.003695 0.02986 -0.006863 -0.00786 -0.0437 -0.001228 0.1913
0.0722 -0.03062 0.002028 -0.02827 -0.002432 0.004448 -0.006596 0.1603
0.02168 -0.3433 0.00107 0.03903 -0.01485 0.1236 0.0168 -0.0756
-0.0808 0.03366 0.01996 -0.007217 -0.667 -0.04745 0.02512 -0.07294
-0.1642 -0.1077 -0.4297 0.002527 0.02913 -0.1284 -0.06525 0.0279
-0.024 -0.0492 0.06757 0.05057 0.0001267 0.01478 0.0365 -0.1774
-0.01724 0.08234 -0.367 -0.1313 0.041 0.0241 -0.1691 0.11414
-0.0247 0.00915 0.1318 0.006966 -0.0424 -0.010666 -0.0851 -0.3267
0.00977 0.01433 0.003368 -0.1538 0.037 -0.02344 -0.03586 0.3633
-0.4385 0.01142 -0.01059 0.1707 -0.02374 -0.1907 0.0442 -1.116
-0.00399 -0.0646 0.087 -0.0865 -0.0234 -0.05972 -0.12006 0.002657
0.03918 0.04126 -0.178 -0.014015 0.07776 0.00063 0.01104 -0.004055
-0.009514 -0.02469 -0.0898 -0.1514 -0.00791 -0.09534 -0.4038 0.0047
0.0002792 0.003242 0.4734 -0.01698 -0.1292 0.2072 0.013336 -0.1013
0.01455 0.01385 -0.003376 0.1356 -0.02318 -0.03226 -0.02184 0.09955
-0.03467 -0.02707 0.002981 -0.02855 0.00763 -0.02466 -0.012726 0.3396
-0.00695 0.4685 -0.2052 0.05948 -0.04028 0.1002 0.02261 -0.1211
0.07855 0.01625 -0.004475 0.08673 -0.4817 -0.1519 0.0759 0.0647
-0.0798 -0.2742 0.08716 -0.003431 0.04675 -0.2083 -0.005146 -0.004868
-0.0395 -0.0766 0.03204 0.05856 0.01529 -0.0671 -0.1586 0.12006

model_1/model/batch_normalization_11/FusedBatchNormV3 f2 [112]
00000000: 9a42 e7ba 6941 dc38 ea2e 8f30 3236 7127
00000010: c4bb deb0 f8b4 b038 69b3 d32d 11b5 483c
00000020: b835 f1c0 03c4 3d36 6c3a d836 8138 c834
00000030: cd38 3396 1ab9 1ab7 6834 9244 61bc 18af
00000040: cb31 03b4 303b 42b5 0539 e13c 5a24 c0b1
00000050: 9730 403a 5437 3739 a331 d5b6 20be ba37
00000060: ee36 e8ba 9235 c8b9 6c3b 4eb5 deaf bc40
00000070: 2536 3239 3621 02b2 c2b6 ab38 1d32 39b6
00000080: bb3d 723c 9c2e e233 621d 2121 f842 1f41
00000090: b338 40b4 fb1d ca3e 293d 4a3e 82b8 c439
000000a0: 55b5 93b2 443a 653c 1abe 0936 8bc2 c335
000000b0: de36 65bb 6834 ce3c 0348 bdb2 ed37 4fb9
000000c0: 123d 0737 cf39 603d 17aa ba32 9b35 aaa8
000000d0: 3d2d 8a38 713b f731 aab6 3f3a 9d3b f8c1
3.3 -0.863 2.705 0.6074 0.10803 0.1425 0.3872 0.02907
-0.9707 -0.1521 -0.3105 0.586 -0.2316 0.091 -0.3167 1.07
0.3574 -2.47 -4.01 0.39 0.8027 0.4277 0.563 0.2988
0.6 -0.0015135 -0.6377 -0.4438 0.2754 4.57 -1.095 -0.11084
0.181 -0.2507 0.8984 -0.3286 0.6274 1.22 0.017 -0.1797
0.1434 0.7812 0.458 0.652 0.1761 -0.427 -1.531 0.483
0.433 -0.8633 0.3481 -0.7227 0.9277 -0.3315 -0.1229 2.367
0.384 0.6494 0.01018 -0.1877 -0.4224 0.5835 0.191 -0.389
1.433 1.111 0.1033 0.2463 0.005257 0.01002 3.484 2.56
0.5874 -0.2656 0.00584 1.697 1.29 1.572 -0.5635 0.7207
-0.3333 -0.2054 0.783 1.099 -1.525 0.3772 -3.271 0.36
0.4292 -0.9243 0.2754 1.201 8.02 -0.2106 0.4954 -0.6636
1.268 0.4392 0.726 1.344 -0.04758 0.2102 0.3503 -0.03644
0.08185 0.5674 0.93 0.1864 -0.4165 0.781 0.9517 -2.984

model_1/model/conv2d_10/BiasAdd/ReadVariableOp/resource f2 [112]
00000000: 7bb0 1735 d2ac c332 7db1 09b2 cc34 bfb5
00000010: 60b1 d0b5 35b1 d4a2 5cb6 7eaf 5cb7 0237
00000020: 08b4 41b0 7dac c6b5 d6ad 8bb2 11b1 04b7
00000030: 71b1 46b2 e2b2 03b9 2d33 3eb5 4bb5 c824
00000040: b927 d4b0 2cb1 5db7 91b0 3bb2 7a2d 22b4
00000050: 4fb4 92af 44a3 dab7 b4a9 59b7 02b5 64b4
00000060: 8438 d5b4 0eb2 05b3 6eb5 97b1 1e39 bbb0
00000070: 9930 66b1 57b3 e7b2 8da7 01b0 6fb5 f6b1
00000080: 7eb6 912f 3db2 46af dcb4 41b1 8ab4 0735
00000090: 27ae 0eae 0434 1d30 0a36 74ad 8430 a1b8
000000a0: c431 7030 57b6 73b0 0fb1 26b8 bb2a c9af
000000b0: 023a 332d 22b5 94b1 082b 69b0 d2a5 ffb2
000000c0: 7bb6 b2ad 29b5 99b6 3f34 95b6 d5ad e233
000000d0: 93ae 94b4 ceb4 0eb6 37b2 aeb1 ecb6 e7ac
-0.14 0.318 -0.0753 0.2113 -0.1715 -0.1886 0.2998 -0.3591
-0.168 -0.3633 -0.1627 -0.013336 -0.3975 -0.11707 -0.46 0.438
-0.252 -0.1329 -0.0701 -0.3608 -0.0912 -0.2045 -0.1583 -0.4385
-0.17 -0.196 -0.2151 -0.6265 0.2242 -0.3276 -0.3308 0.01868
0.03017 -0.1509 -0.1616 -0.4602 -0.1427 -0.1947 0.0856 -0.2583
-0.2693 -0.1183 -0.01419 -0.4907 -0.04456 -0.4592 -0.313 -0.2744
0.5645 -0.302 -0.1892 -0.2194 -0.3394 -0.1747 0.6396 -0.1478
0.1437 -0.1687 -0.2294 -0.2157 -0.0295 -0.1251 -0.3396 -0.1863
-0.4058 0.1182 -0.195 -0.11365 -0.3037 -0.1642 -0.2837 0.3142
-0.0961 -0.0946 0.251 0.1285 0.3774 -0.0852 0.1411 -0.5786
0.1802 0.1387 -0.3962 -0.139 -0.1581 -0.5186 0.05258 -0.12164
0.751 0.08124 -0.3208 -0.1743 0.05493 -0.1378 -0.02274 -0.2186
-0.405 -0.089 -0.3225 -0.4124 0.2654 -0.4114 -0.0911 0.2463
-0.1027 -0.2861 -0.3003 -0.3784 -0.1942 -0.1775 -0.4326 -0.0766

model_1/model/conv2d_11/BiasAdd;model_1/model/conv2d_23/Conv2D;model_1/model/conv2d_11/Conv2D;model_1/model/conv2d_11/BiasAdd/ReadVariableOp/resource f2 [112]
00000000: f936 e339 073a 123b 3036 16b1 9a29 f738
00000010: 9f37 25b8 af34 8732 7ab1 0c25 7fb1 0b1f
00000020: 5536 973a 26b7 e638 ee3e ccbb 7b1c b93d
00000030: 1b35 5c31 002c 513b 7f36 4f30 a1b5 da39
00000040: ca38 f03d c43b 3739 a53a 8a3a c331 e5b0
00000050: 283f 2132 75a4 da38 073c 499f 79b3 82b5
00000060: 2b3b db38 b63a 77bd 1534 372d d339 f932
00000070: 3db7 7d3d 923a 4b38 75a8 aab7 1c3a 8b30
00000080: 063b c3b9 deb2 c635 c53c 7e3d 9039 e6b8
00000090: a33d 0eb5 c5b9 d1b0 153a 533e 6e3a 0d3d
000000a0: 592f fdbb fd37 1aa4 1e3c 02b4 a938 8736
000000b0: 2a3e fb38 0b2f 2e36 1140 25b8 9436 b52b
000000c0: 9631 be33 d136 ec28 cf36 943a 8d33 66ab
000000d0: 603a f940 2c3b d141 df38 b33e 6535 213d
0.4358 0.736 0.7534 0.884 0.3867 -0.1589 0.04376 0.6206
0.4763 -0.518 0.2927 0.204 -0.1711 0.01971 -0.1718 0.006878
0.3958 0.8237 -0.4468 0.6123 1.732 -0.9746 0.004375 1.431
0.319 0.1675 0.0625 0.9146 0.406 0.1346 -0.3518 0.7314
0.5986 1.484 0.9707 0.652 0.8306 0.8174 0.18 -0.153
1.789 0.1915 -0.01741 0.6064 1.007 -0.007114 -0.2335 -0.3442
0.896 0.607 0.839 -1.366 0.2551 0.0815 0.728 0.2179
-0.4524 1.372 0.8213 0.5366 -0.03482 -0.479 0.7637 0.142
0.878 -0.72 -0.2146 0.3608 1.192 1.373 0.6953 -0.6123
1.409 -0.316 -0.721 -0.1505 0.7603 1.581 0.8037 1.263
0.1148 -0.9985 0.4993 -0.01602 1.029 -0.2505 0.5825 0.408
1.541 0.6226 0.11005 0.3862 2.033 -0.518 0.4111 0.0602
0.1746 0.242 0.426 0.03845 0.4255 0.8223 0.236 -0.0578
0.797 2.486 0.8965 2.908 0.609 1.675 0.3372 1.282

model_1/model/batch_normalization_12/FusedBatchNormV3;model_1/model/conv2d_24/Conv2D;model_1/model/conv2d_12/Conv2D f2 [40]
00000000: 83b6 772e f8ad 0cb8 6bb1 24bc 5fb7 1231
00000010: 4426 afb7 4eac 7197 e3ba 3426 ea99 c0b8
00000020: 3c3c d534 3135 9536 be38 4739 16b4 9838
00000030: 1f30 96b2 0038 533b f634 2339 dd34 5b38
00000040: fd2c 4eb5 9dac 58b9 44b4 7230 fe34 4921
-0.407 0.101 -0.09326 -0.506 -0.1693 -1.035 -0.4607 0.1584
0.02448 -0.4802 -0.06726 -0.001817 -0.861 0.02423 -0.002888 -0.5938
1.059 0.302 0.3245 0.4114 0.593 0.6597 -0.2554 0.574
0.1288 -0.2058 0.5 0.9155 0.31 0.642 0.304 0.5444
0.07794 -0.3315 -0.0721 -0.668 -0.2666 0.1389 0.312 0.01032

model_1/model/batch_normalization_13/FusedBatchNormV3;model_1/model/conv2d_19/Conv2D;model_1/model/conv2d_13/Conv2D f2 [152]
00000000: 553d f4b8 1aaf 16b9 8a2a 003a df3c ac35
00000010: 1740 f72c 623d 93b7 0341 3134 e1b9 4540
00000020: 4e3f 1c38 a524 77ba 8e36 d936 1cb0 a5ba
00000030: 9f38 ef3d 55b6 8f39 753d 013c 5eac 48bd
00000040: 66ad 163f 06b4 4d38 4738 2d31 ae36 d3b5
00000050: d095 a1ab 72b8 0fb8 672e 3ca8 f43f 42bc
00000060: 793e ef3d 4b3d 6a2e 2f34 023e 4e40 5db9
00000070: 243e 3b2a 02b0 d123 0dad 5d33 40bb dc2d
00000080: f53d 2fb5 d93c 973b 3cb4 923a 1db9 5fb4
00000090: 4826 9d38 373c 06b4 9137 653b 163d 5aba
000000a0: bd3d 19b1 c43e 332e 0024 45ad 2938 6c38
000000b0: f730 693b 19b0 792b 07a4 70b4 a0ba 7bb4
000000c0: 5334 763e 1f2e 02bb 5c40 d23c bf20 dcab
000000d0: 2139 c0b2 2caf 2a40 ad3c 7635 67bc 3d3a
000000e0: ee35 3427 2d35 cebb 44bb 0620 1e35 e2bd
000000f0: ca2d c3b5 0e38 ebb2 a9b1 bf40 c039 9fba
00000100: 6bba 763c 86af 2b3c 58b3 5b3c 203e be3a
00000110: 8135 cfb9 923d 8d35 a9bb 603f 33a9 1c3e
00000120: 2f40 67b5 033c b9b9 ce3d c132 8339 033f
1.333 -0.619 -0.11096 -0.6357 0.0511 0.75 1.218 0.3545
2.045 0.0776 1.346 -0.4734 2.506 0.262 -0.735 2.135
1.826 0.5137 0.01814 -0.808 0.4097 0.428 -0.1284 -0.8306
0.5776 1.483 -0.3958 0.695 1.364 1.001 -0.06824 -1.32
-0.08435 1.771 -0.2515 0.5376 0.5347 0.1617 0.4175 -0.364
-0.001419 -0.0596 -0.5557 -0.5073 0.10004 -0.03308 1.988 -1.064
1.618 1.483 1.323 0.1002 0.2615 1.502 2.152 -0.6704
1.535 0.04868 -0.1252 0.01527 -0.0789 0.2301 -0.9062 0.09155
1.489 -0.324 1.212 0.9487 -0.2646 0.8213 -0.639 -0.2732
0.02454 0.5767 1.054 -0.2515 0.473 0.9243 1.271 -0.794
1.435 -0.1593 1.691 0.09686 0.01563 -0.08234 0.52 0.5527
0.1552 0.9263 -0.128 0.05838 -0.01573 -0.2773 -0.828 -0.28
0.2703 1.615 0.09564 -0.876 2.18 1.205 0.00927 -0.0614
0.641 -0.2109 -0.11206 2.082 1.169 0.3413 -1.101 0.78
0.3706 0.02814 0.3235 -0.9756 -0.908 0.00786 0.3198 -1.471
0.09045 -0.36 0.507 -0.2162 -0.1769 2.373 0.7188 -0.8276
-0.8022 1.115 -0.11755 1.042 -0.2295 1.089 1.531 0.843
0.344 -0.726 1.393 0.347 -0.9575 1.844 -0.04062 1.527
2.092 -0.3376 1.003 -0.7153 1.451 0.211 0.689 1.753

model_1/model/batch_normalization_14/FusedBatchNormV3;model_1/model/depthwise_conv2d_4/depthwise;model_1/model/conv2d_19/Conv2D f2 [1, 5, 5, 152]
00000000: ea1c d129 e61e 37b4 91a4 42a6 0534 861f
00000010: 5fa9 d237 a6a8 e02c 12a8 141a a933 2928
00000020: 2029 98a9 0cab 8730 6235 c5b0 932c f5b1
00000030: b9a8 f120 75bb 4525 3a2c 4aaa fa27 4734
00000040: 7630 db2c 7d3a cca1 d2a0 aa38 0ba3 38ae
00000050: eb35 9b33 753c b933 74ad 02bc d52c d2ac
00000060: 0d2d 1e89 2daa a425 f3aa 82a6 aa22 7c2d
00000070: acaf da2f db33 ab3c d130 8d27 6828 3fa1
00000080: c1a5 a02f c2ac 5e27 87b1 36ab 63ae 5a2c
00000090: 15bd 802c a626 8733 9faf 342b 0426 60aa
000000a0: 3cac bb36 582c 1424 33ae 6228 1d1a 630d
000000b0: e52d 0e31 1eaf 7024 e229 5432 b82f 9834
000000c0: 7aa5 75b0 9b24 b6b9 59a8 f5b3 042a af37
000000d0: 9d13 7524 7eaa af1c 1a24 3930 7520 d4a5
000000e0: 47b2 76b4 ebad fbb0 c02c 16b4 c1a7 702d
000000f0: bead 79ac 18b2 1930 4b2d f127 c8aa 94b4
00000100: 24bc b2a4 29a7 a929 eaaf 3121 52af 93b1
00000110: 5cb4 901f 94a0 d529 3eab 5424 abba 99b0
00000120: 48ab 749d e225 ae31 e820 96b9 2131 4323
00000130: a8a4 ee3a c91f b5a9 4734 83a9 21b0 baa8
00000140: fca6 c4b0 e4a9 5c2e 0da1 3331 ac31 3724
00000150: a018 3baa 49ab 95bd a335 c0a8 8eb9 9cac
00000160: 50b2 e5a0 25ad 372c 0e29 7da0 ffb0 6330
00000170: 9334 b72c 6b35 bd9b 6d31 8434 f033 15b4
00000180: 4f28 a42c 16a4 adb5 4834 39be a72a 46b0
00000190: 4aa7 b230 2429 a8a0 c0a5 8727 6129 1b31
000001a0: 70af fe33 9fb2 b9b6 bf25 47b8 ba20 8c33
000001b0: 84a8 1fa9 45b0 f42c 542c 9716 d1b1 55b4
000001c0: 5dbc 16ac 342d b02b 3ab0 42b1 69a8 173a
000001d0: a7a0 3938 fb2c 63af 2b34 59b0 af23 c130
000001e0: 6fa5 c132 7cac 262a 52b3 1abe 8a2f 1f34
000001f0: 6a22 cfa8 cdad 3935 d3af de28 a0b6 f134
0.0048 0.04544 0.006737 -0.2634 -0.01784 -0.02444 0.2512 0.007347
-0.04196 0.4888 -0.03632 0.0762 -0.0318 0.002968 0.2394 0.0325
0.04004 -0.0437 -0.05505 0.1415 0.3364 -0.149 0.0715 -0.1862
-0.0369 0.00965 -0.932 0.02058 0.06604 -0.04913 0.03116 0.2673
0.1394 0.07587 0.811 -0.01132 -0.009415 0.583 -0.013756 -0.09717
0.3699 0.2377 1.114 0.2413 -0.0852 -1.002 0.0755 -0.0753
0.0789 -0.0001562 -0.04825 0.02203 -0.0543 -0.02542 0.013016 0.0857
-0.1199 0.1227 0.2455 1.167 0.1505 0.0295 0.03442 -0.01025
-0.02248 0.11914 -0.07434 0.02878 -0.1727 -0.05634 -0.0998 0.068
-1.2705 0.0703 0.02597 0.2352 -0.1191 0.05627 0.0235 -0.0498
-0.06616 0.4207 0.0679 0.01593 -0.09686 0.03424 0.002985 0.0003288
0.0921 0.158 -0.1112 0.01733 0.04596 0.1978 0.1206 0.287
-0.0214 -0.1393 0.01799 -0.714 -0.03397 -0.2487 0.047 0.4802
0.0009294 0.01741 -0.05072 0.004574 0.01602 0.132 0.008705 -0.02277
-0.1962 -0.2788 -0.09247 -0.1556 0.0742 -0.2554 -0.03029 0.08496
-0.0897 -0.0699 -0.1904 0.128 0.0827 0.03102 -0.05298 -0.2861
-1.035 -0.01834 -0.02797 0.04422 -0.12366 0.01014 -0.1144 -0.1742
-0.2725 0.007385 -0.00894 0.04556 -0.05658 0.0169 -0.8335 -0.1437
-0.0569 -0.005325 0.02298 0.1775 0.00958 -0.698 0.1603 0.01418
-0.01819 0.866 0.007603 -0.0446 0.2673 -0.04306 -0.129 -0.03693
-0.02728 -0.1489 -0.04602 0.09937 -0.009865 0.1625 0.1772 0.01646
0.002258 -0.04868 -0.05692 -1.3955 0.3523 -0.0371 -0.6943 -0.072
-0.1973 -0.00956 -0.0804 0.06586 0.0395 -0.008766 -0.1561 0.1371
0.286 0.07367 0.3386 -0.003778 0.1696 0.2822 0.248 -0.2551
0.03366 0.0725 -0.01596 -0.3547 0.2676 -1.556 0.05197 -0.1335
-0.02847 0.1467 0.04016 -0.009094 -0.02246 0.0294 0.04202 0.1595
-0.1162 0.2498 -0.2069 -0.4202 0.02245 -0.5347 0.00923 0.2358
-0.03528 -0.04 -0.1334 0.0774 0.0676 0.001609 -0.1818 -0.2708
-1.091 -0.06384 0.0813 0.06006 -0.1321 -0.1643 -0.03445 0.761
-0.00909 0.528 0.0778 -0.1154 0.2605 -0.1359 0.01501 0.1486
-0.02122 0.211 -0.07007 0.04803 -0.2288 -1.525 0.1178 0.2576
0.01253 -0.03757 -0.09064 0.3264 -0.12225 0.03802 -0.414 0.3088

model_1/model/batch_normalization_14/FusedBatchNormV3 f2 [152]
00000000: c0bc f1ba 2bbe 3bb3 46bc 48b3 36b9 4730
00000010: ef36 4fb5 6cb7 27b2 3841 2238 ecba 443c
00000020: 2c40 28b2 4db2 3ab8 f0b2 e2b3 35a9 8db0
00000030: 4fbd f441 d2b8 9db2 3334 19bc 10b2 6cc0
00000040: 54b2 46b4 e6b6 34ac 803b dba5 372b 31b6
00000050: 13b5 0834 baac bab1 7027 0cb1 94b7 823c
00000060: 83be 4237 18be b5b5 4e38 f338 01bc 0034
00000070: fdbc 5bb4 2eb4 c0b8 db31 83b4 49b5 9ab9
00000080: d63c 04ac 4a3f 03b6 40a4 6cbc a9ba c0bf
00000090: 5fb8 06bb cab8 ebb4 80b6 7eaf d237 7cbe
000000a0: 3cbe 26b4 2e3c 13b8 a0b6 30b3 bf38 c5b8
000000b0: 4eb1 d029 cc34 9234 5336 b4a3 08bd 0cbb
000000c0: 0f39 c238 6e2a 6fc4 4cbd e7bc 57b8 dfb4
000000d0: 3d2a c8b5 36a4 6237 3620 e636 f7a6 69b0
000000e0: ff39 a7be c131 0834 33b3 16b6 35ad 2dad
000000f0: e4b7 0138 343a 05b6 0cac 883f 0faf 14bc
00000100: fbba 6db9 abb8 d538 72ab dd31 57bc 072e
00000110: 98b8 16b1 f6b4 e1bb 8131 c73a d0b8 79b5
00000120: 8438 ddaf 87b0 bb2d 2bbb 5434 0dbb 0d2e
-1.1875 -0.8677 -1.542 -0.226 -1.068 -0.2275 -0.6514 0.1337
0.4333 -0.3318 -0.4639 -0.1923 2.61 0.5166 -0.865 1.066
2.086 -0.1924 -0.1969 -0.5283 -0.2168 -0.2463 -0.04068 -0.1422
-1.327 2.977 -0.6025 -0.2067 0.2625 -1.024 -0.1895 -2.21
-0.1978 -0.267 -0.4312 -0.0657 0.9375 -0.02287 0.05637 -0.387
-0.3171 0.252 -0.07385 -0.179 0.02905 -0.1577 -0.4736 1.127
-1.628 0.4536 -1.523 -0.3567 0.538 0.6187 -1.001 0.25
-1.247 -0.2722 -0.2612 -0.5938 0.183 -0.282 -0.3303 -0.7
1.209 -0.06274 1.822 -0.3757 -0.0166 -1.105 -0.8325 -1.9375
-0.5464 -0.878 -0.5986 -0.3074 -0.4062 -0.11707 0.4888 -1.621
-1.559 -0.2593 1.045 -0.5093 -0.414 -0.2246 0.5933 -0.596
-0.1658 0.0454 0.2998 0.2856 0.3953 -0.015045 -1.258 -0.881
0.6323 0.5947 0.05023 -4.434 -1.324 -1.226 -0.5425 -0.3044
0.04874 -0.3613 -0.01645 0.4614 0.008224 0.4312 -0.0272 -0.1378
0.7495 -1.663 0.1798 0.252 -0.225 -0.3804 -0.08136 -0.0809
-0.4932 0.5005 0.7754 -0.3762 -0.06323 1.883 -0.1103 -1.02
-0.8726 -0.678 -0.5835 0.604 -0.05817 0.1832 -1.085 0.0942
-0.574 -0.1589 -0.31 -0.985 0.172 0.847 -0.6016 -0.342
0.5645 -0.12286 -0.1415 0.08954 -0.896 0.2705 -0.8813 0.09454

model_1/model/conv2d_14/BiasAdd/ReadVariableOp/resource f2 [152]
00000000: 1ab0 9db1 44b3 d6b3 14b6 3cb6 eeb7 f4b5
00000010: 0eb8 04b4 c0aa 9a2b 9cb6 9a39 23ae d6ba
00000020: 2ab6 5538 52b8 6f2c 91b8 aab7 96b6 b4b2
00000030: edb0 42b3 c2b8 9fba 23b4 8fb9 12ba 38b9
00000040: 07b8 54b9 61b8 1eb8 c6b5 94b1 2fbc a42d
00000050: 47ba 41af d5b8 e3b6 0eb9 42b5 71b3 e5b4
00000060: f3b8 ebb8 4436 82b8 14b5 53b4 0630 5c29
00000070: 6129 4ca5 3bb5 d6b7 34b9 c4b4 31bc 43b4
00000080: 76b5 0db2 deb4 27b4 33b7 29b7 9ab7 dbb8
00000090: 27bb 9bb6 2bb8 e3ac ccb9 04b2 a429 0226
000000a0: 76b5 a8b9 05ba ea2e 74b7 d8b9 43b5 f5b3
000000b0: 97ad 3425 64b3 6ab8 87b2 24b5 97b0 f7b3
000000c0: 9db4 7cad 45aa 66b4 ebb4 9bb0 8fb5 1cb9
000000d0: 1db8 ddaf d1b3 6cb9 eb31 81b8 71b3 f735
000000e0: 21b6 7cb5 45b2 74ba b2b9 762b 50b9 09b4
000000f0: bbb7 28b9 e1b8 9ab2 aeb4 dcb9 87b4 4e39
00000100: 0fb7 5cb5 0aba d8b5 0ab7 4cb8 92a7 f2a8
00000110: 2dba 37ba d7ac 11bb ceb5 c0b1 d1b5 c3b7
00000120: 7fb6 01b8 73b8 4cb7 bbb0 91b4 14b8 d6b7
-0.1282 -0.1754 -0.227 -0.2449 -0.38 -0.3896 -0.4956 -0.372
-0.507 -0.251 -0.05273 0.0594 -0.413 0.7 -0.0959 -0.8545
-0.3853 0.5415 -0.54 0.0693 -0.571 -0.479 -0.4116 -0.2095
-0.1539 -0.2268 -0.5947 -0.8276 -0.2585 -0.695 -0.759 -0.6523
-0.5034 -0.666 -0.5474 -0.5146 -0.3608 -0.1743 -1.046 0.08813
-0.7847 -0.11334 -0.604 -0.4304 -0.632 -0.3286 -0.2325 -0.306
-0.6187 -0.6147 0.3916 -0.5635 -0.3174 -0.2703 0.1257 0.04187
0.04202 -0.02069 -0.327 -0.4897 -0.6504 -0.2979 -1.048 -0.2664
-0.3413 -0.1891 -0.3042 -0.2595 -0.45 -0.4475 -0.475 -0.607
-0.894 -0.4128 -0.521 -0.07635 -0.7246 -0.188 0.04407 0.02347
-0.3413 -0.707 -0.7524 0.10803 -0.4658 -0.7305 -0.3289 -0.2487
-0.08734 0.02032 -0.231 -0.552 -0.204 -0.3213 -0.1434 -0.2489
-0.2883 -0.0857 -0.04898 -0.275 -0.3074 -0.1439 -0.3474 -0.6387
-0.514 -0.12286 -0.2443 -0.6777 0.1849 -0.563 -0.2325 0.3728
-0.383 -0.3428 -0.1959 -0.8066 -0.712 0.0583 -0.664 -0.2522
-0.4832 -0.6445 -0.61 -0.2063 -0.2925 -0.7324 -0.283 0.663
-0.4412 -0.335 -0.755 -0.3652 -0.44 -0.537 -0.02957 -0.03864
-0.772 -0.777 -0.0756 -0.8833 -0.3628 -0.1797 -0.3635 -0.485
-0.406 -0.5005 -0.556 -0.456 -0.1478 -0.2854 -0.51 -0.4897

model_1/model/conv2d_15/BiasAdd;model_1/model/conv2d_19/Conv2D;model_1/model/conv2d_15/Conv2D;model_1/model/conv2d_15/BiasAdd/ReadVariableOp/resource f2 [152]
00000000: e93c 61b2 2438 cf34 16a4 433f 4a3b 5a3d
00000010: 643f 5937 8ca1 3baf ceb7 7934 f7ad 10b4
00000020: e632 0a3b a2af aabb 562e 8c2a b999 9635
00000030: 7c36 9b35 abb2 492d 3734 013d 8b3e ff39
00000040: 8e35 c72c 7a34 97b0 de39 6a37 a734 813c
00000050: 00ad 3db4 70b5 d72c 58aa 0d2d 9d3c a535
00000060: cc2c 70b8 d53a c439 5b36 be35 42a7 90b7
00000070: 39b7 9eb7 092b 93b0 39b3 f2a8 b032 5039
00000080: 5d3e d33a a43e 9738 6d3b 2c3c b833 1734
00000090: 1232 2735 4e38 cbb4 a032 8b3c 4b39 9e38
000000a0: aa3a 1936 693c 7d37 1a31 33b7 fa3c 0f3d
000000b0: e9b3 e72e 2136 9f3c a53e ab39 2830 f135
000000c0: 783d 6f3a 0339 e4bb 4732 aebb ed3d 6d30
000000d0: d530 72a6 c73c 343d a638 db3c f6b5 38b3
000000e0: 013c 423c 703b ce24 9933 9f36 79b7 2bb5
000000f0: d73a 692b 323e a039 1f39 bc2d 63b6 a835
00000100: 6ba5 0d38 683c 2538 1736 b533 733d eab5
00000110: 2238 1b34 5e3a 7435 12b3 833b 4b38 0130
00000120: 42b4 8238 723e bf3a c1ab 83bd 7e37 b436
1.228 -0.1993 0.5176 0.3005 -0.01596 1.815 0.911 1.338
1.848 0.4592 -0.01083 -0.113 -0.4878 0.2795 -0.0932 -0.254
0.2156 0.88 -0.11926 -0.958 0.099 0.05115 -0.002794 0.349
0.4053 0.3503 -0.2084 0.0826 0.2634 1.251 1.636 0.7495
0.3472 0.07465 0.2798 -0.1434 0.7334 0.4634 0.2908 1.126
-0.0781 -0.265 -0.3398 0.0756 -0.04956 0.0789 1.153 0.3528
0.07495 -0.5547 0.854 0.7207 0.3972 0.359 -0.02835 -0.4727
-0.4514 -0.476 0.05496 -0.143 -0.2257 -0.03864 0.209 0.664
1.591 0.853 1.66 0.5737 0.928 1.043 0.2412 0.2556
0.1897 0.322 0.538 -0.2996 0.207 1.136 0.6616 0.577
0.833 0.381 1.103 0.468 0.1594 -0.45 1.244 1.265
-0.2472 0.10785 0.383 1.155 1.661 0.7085 0.1299 0.3713
1.367 0.804 0.6265 -0.9863 0.1962 -0.96 1.481 0.1383
0.151 -0.02518 1.194 1.301 0.581 1.214 -0.3726 -0.2256
1.001 1.064 0.9297 0.01877 0.2374 0.4138 -0.467 -0.323
0.855 0.0579 1.549 0.703 0.64 0.0896 -0.3992 0.3535
-0.02116 0.5063 1.102 0.518 0.3806 0.2408 1.362 -0.3696
0.5166 0.2566 0.796 0.3408 -0.221 0.939 0.5366 0.1251
-0.266 0.5635 1.611 0.8433 -0.06058 -1.378 0.4683 0.419

model_1/model/batch_normalization_15/FusedBatchNormV3;model_1/model/conv2d_24/Conv2D;model_1/model/conv2d_16/Conv2D f2 [40]
00000000: 992a 8a2c 2b34 1936 c42d f12c 63b5 f634
00000010: 2f31 e6b2 60b7 40ae 2b2a 15ae 6eac 58b4
00000020: aa34 2fb7 2bb3 5b38 ddaf f7ac 3bb2 4038
00000030: 73a5 5030 fea5 78a9 7ab7 45a4 9eb0 c128
00000040: 2c1b 842b 94ae 491c f12a 00b3 b134 232c
0.05154 0.0709 0.2605 0.381 0.0901 0.0772 -0.3367 0.31
0.162 -0.2156 -0.461 -0.09766 0.0482 -0.09503 -0.0692 -0.2715
0.2915 -0.449 -0.224 0.5444 -0.12286 -0.0776 -0.1947 0.5312
-0.02129 0.1348 -0.0234 -0.04272 -0.4673 -0.01668 -0.1443 0.03714
0.003502 0.05872 -0.1028 0.004185 0.05423 -0.2188 0.2932 0.06464

model_1/model/batch_normalization_16/FusedBatchNormV3;model_1/model/conv2d_19/Conv2D;model_1/model/conv2d_17/Conv2D f2 [152]
00000000: b8b9 9e35 022d ffb7 5ab7 0231 6f3c 63b0
00000010: c3b1 b6b9 2db8 b3b7 4cb4 a3b2 4d36 6eb2
00000020: fdbc 6fb1 fc2b 48bb 4139 edbe 352e bdbb
00000030: 3db8 5fb9 272e d2b6 96bd ed35 8bac 20b7
00000040: 06b6 30b2 a4b8 3ab8 38b2 08b2 e8bd 30bf
00000050: 643c 2335 9fb6 803e 38b4 762f 1aba 7b32
00000060: bab7 82aa 77ba 1a3c 3c3c 842d 283b 6132
00000070: 76bc e636 1db7 c830 d528 253c c6b4 d936
00000080: 7cb9 0641 23bb 2ab3 59ba 0540 6cb7 bdb9
00000090: 262f eeb9 d4bd 7eae ad32 48b9 e1b9 acb2
000000a0: 503a b0be 66ac 22b9 93b9 383e da39 e23a
000000b0: 65b9 1db9 20be 7f3c a43c bfba b9bb 07bc
000000c0: ba35 5aba 52b5 9bb8 8dbd 7b39 87bc 8eb2
000000d0: 19b9 73b9 b53e dabb d7af d33b b8b6 28aa
000000e0: baba ed2c 9739 a8bf 4abf f3b3 2fbe 373a
000000f0: db2a c432 a32f d33b 103d 4faf 32b7 4fbe
00000100: 993c 50a9 633c e8bc 0eb2 ae37 7e40 72b3
00000110: e7b9 a73d 3632 013c 41c0 a838 0e34 0f37
00000120: cfb3 bda5 babb 8838 9bbd 0eb9 d7bd ba2c
-0.715 0.351 0.07825 -0.4998 -0.4595 0.1565 1.108 -0.1371
-0.18 -0.714 -0.522 -0.4812 -0.2686 -0.2074 0.3938 -0.2009
-1.247 -0.1698 0.06238 -0.91 0.6567 -1.731 0.097 -0.9673
-0.53 -0.6714 0.0961 -0.4263 -1.396 0.3704 -0.071 -0.4453
-0.3765 -0.1934 -0.58 -0.5283 -0.1943 -0.1885 -1.477 -1.797
1.098 0.321 -0.4138 1.625 -0.2637 0.1166 -0.7627 0.2025
-0.483 -0.05084 -0.808 1.025 1.059 0.0862 0.8945 0.1993
-1.115 0.4312 -0.4446 0.1494 0.03775 1.036 -0.2983 0.428
-0.6855 2.512 -0.892 -0.2239 -0.7935 2.01 -0.4639 -0.7173
0.1117 -0.741 -1.457 -0.10144 0.2086 -0.66 -0.735 -0.2085
0.789 -1.672 -0.0687 -0.6416 -0.697 1.555 0.7314 0.8604
-0.6743 -0.639 -1.531 1.124 1.16 -0.8433 -0.9653 -1.007
0.358 -0.794 -0.3325 -0.5757 -1.388 0.685 -1.132 -0.2048
-0.637 -0.681 1.677 -0.9814 -0.1225 0.978 -0.42 -0.0481
-0.841 0.07697 0.6987 -1.914 -1.822 -0.2484 -1.546 0.777
0.05356 0.2114 0.1193 0.978 1.266 -0.1142 -0.4497 -1.577
1.149 -0.0415 1.097 -1.227 -0.1892 0.48 2.246 -0.2327
-0.738 1.413 0.1941 1.001 -2.127 0.582 0.2534 0.4412
-0.244 -0.02242 -0.966 0.5664 -1.401 -0.632 -1.46 0.07385

model_1/model/batch_normalization_17/FusedBatchNormV3;model_1/model/depthwise_conv2d_5/depthwise;model_1/model/conv2d_19/Conv2D f2 [1, 5, 5, 152]
00000000: 5336 dd3a dc36 8934 ffb9 b0b8 392c 0db9
00000010: 7eb0 5da9 4fb7 3038 35b3 2734 33ac edb3
00000020: 80ac 1c2b 842f 2033 2faa e0b5 10ae e6b1
00000030: 672e 1a24 1cae d8b8 fba0 0139 b3b8 0033
00000040: 7e35 b52a b699 49a7 e236 1fad 6532 402e
00000050: 6ba8 d7b6 8024 7729 a9b8 d63f 4d2e 3034
00000060: 3f9d 6eb9 5e26 04b0 03ac 1b34 37af 7bb8
00000070: f8b0 7536 3a32 fdb5 a234 1e35 a5a3 0aa4
00000080: 2733 5e16 2336 9f1d 222f 2430 e7b2 492d
00000090: 08af 5db2 dbb0 58a7 de32 2cb2 e0b8 deb9
000000a0: 302e 20b0 1d3c 2022 17ac a325 15ac 1628
000000b0: b730 5fb7 7133 ce2d 4f2d 18a5 77b5 3eb9
000000c0: 05b4 b531 b9ac 722a 7028 2331 e5b8 803b
000000d0: 0caf 5da6 e035 2838 02ac 79ad 3db0 8d2a
000000e0: 3c30 f1ab 60aa 1ead 2631 5136 5335 ddad
000000f0: e330 402d 1fc1 4538 5722 eb2b 04bc 01b6
00000100: 36a1 d333 75b1 c1b2 88b6 a9b1 64a0 cab2
00000110: c5b8 fcae 942c b5a5 bdb8 5aad 8521 8630
00000120: ea30 cf20 de96 5fa5 4015 d034 20b9 ed36
00000130: 48b0 f32e 2d30 2fb4 ecba 56b2 79a4 af36
00000140: b199 9427 9cad d22d 1c29 b030 e0af 5ab9
00000150: c1b2 0129 cc29 d934 6c20 93b5 dfb0 12a4
00000160: 5bb4 04ab 012c f4b6 6435 a841 459c beb0
00000170: 901e ba2c e8af e32a 66b4 1129 8139 152c
00000180: 7e30 17ad 60b0 782e 4cb9 ba3c e22d 5c2f
00000190: eb2d 07b9 8e2d a1b0 baa5 5434 c921 2b32
000001a0: ca31 f6b2 d12f c7ac f639 a033 fe2c f8ad
000001b0: f3b1 2c21 deac 6430 31b9 9528 10b4 2631
000001c0: 68b0 61a6 2eab a928 732b 1fb9 1ab5 37b8
000001d0: 382c 71b1 08a8 7fa4 22ac 7428 352e fe27
000001e0: c032 72b7 c22b e129 42ac b0ac 0032 5a32
000001f0: 6431 3430 36ae a22c 92bb cb2d dfb4 f335
0.3953 0.858 0.4287 0.2834 -0.7495 -0.586 0.066 -0.6313
-0.1404 -0.0419 -0.4568 0.5234 -0.2252 0.2595 -0.0656 -0.2477
-0.0703 0.05554 0.11743 0.2227 -0.0483 -0.3672 -0.0947 -0.1843
0.10004 0.01602 -0.09546 -0.6055 -0.00973 0.6255 -0.5874 0.2188
0.3433 0.0524 -0.002789 -0.02846 0.4302 -0.08 0.1998 0.09766
-0.03452 -0.4275 0.01758 0.0427 -0.5825 1.959 0.09845 0.2617
-0.005123 -0.6787 0.02487 -0.1255 -0.0627 0.2566 -0.11273 -0.56
-0.1553 0.4036 0.1946 -0.3743 0.2896 0.3198 -0.01493 -0.01578
0.2235 0.0015545 0.3835 0.00549 0.11145 0.1294 -0.2157 0.0826
-0.10986 -0.1989 -0.1517 -0.02869 0.2146 -0.1929 -0.6094 -0.7334
0.0967 -0.1289 1.028 0.01196 -0.0639 0.02202 -0.0638 0.03192
0.1473 -0.4607 0.2325 0.0907 0.08295 -0.0199 -0.3416 -0.6553
-0.2512 0.1783 -0.0738 0.05035 0.03467 0.1605 -0.612 0.9375
-0.1101 -0.02486 0.3672 0.5195 -0.0626 -0.0855 -0.1324 0.05118
0.1323 -0.06204 -0.0498 -0.07996 0.1609 0.3948 0.3328 -0.0916
0.1527 0.08203 -2.56 0.5337 0.01238 0.06186 -1.004 -0.3752
-0.01018 0.2445 -0.1705 -0.211 -0.4082 -0.1769 -0.008575 -0.2122
-0.596 -0.10913 0.07153 -0.0223 -0.5923 -0.0836 0.01078 0.1414
0.1536 0.00939 -0.001677 -0.02098 0.001282 0.3008 -0.6406 0.4329
-0.1338 0.1086 0.1305 -0.2615 -0.865 -0.198 -0.01747 0.4177
-0.002779 0.0296 -0.08765 0.09094 0.03992 0.1465 -0.12305 -0.669
-0.211 0.0391 0.0453 0.303 0.00864 -0.3484 -0.1522 -0.0159
-0.2722 -0.0548 0.06256 -0.4346 0.337 2.828 -0.00417 -0.1482
0.00641 0.07385 -0.12354 0.0538 -0.275 0.03958 0.688 0.0638
0.1404 -0.0795 -0.1367 0.1011 -0.662 1.182 0.0919 0.115
0.09247 -0.6284 0.0868 -0.1447 -0.02237 0.2705 0.0113 0.1927
0.1809 -0.2175 0.12213 -0.07465 0.745 0.2383 0.078 -0.09326
-0.1859 0.0101 -0.07605 0.1372 -0.649 0.0358 -0.254 0.1609
-0.1377 -0.02492 -0.0561 0.0364 0.0582 -0.64 -0.3188 -0.527
0.0659 -0.17 -0.0315 -0.01756 -0.0646 0.0348 0.097 0.03122
0.2109 -0.4653 0.0606 0.04593 -0.0665 -0.07324 0.1875 0.1985
0.1685 0.1313 -0.09705 0.0724 -0.9463 0.0905 -0.3044 0.3718
