AgoraNew/tflite-wasm/segm_lite_v1082.tflite (tflite, 249008 bytes, 109 tensors)

conv2d/Kernel f2 [16, 3, 3, 3]
000000 25 b6 1e b8 3b b5 a6 b3 d7 35 34 3b d8 b0 a3 38
       -0.384 -0.5146 -0.327 -0.239 0.365 0.9004 -0.1514 0.5796
000010 73 38 85 24 95 b8 c2 b2 45 34 da 38 39 3e 4d 25
       0.556 0.01765 -0.5728 -0.2112 0.2668 0.6064 1.556 0.0207
000020 b8 38 54 38 50 39 f2 ad 55 ab 81 2f d9 ae 16 2c
       0.59 0.541 0.664 -0.0929 -0.05728 0.11725 -0.107 0.06384
000030 9c a5 55 af fe af 15 c0 01 36 29 3d 62 c0 1a 39
       -0.02191 -0.11456 -0.1249 -2.041 0.3752 1.29 -2.191 0.6377
000040 c9 3d 34 bc d1 35 79 39 8f c0 e1 39 49 3e 3d c1
       1.446 -1.051 0.3635 0.684 -2.28 0.735 1.571 -2.62
000050 b5 3c db 3f a7 bc 00 35 46 39 f2 ba 5c 33 85 35
       1.177 1.964 -1.163 0.3125 0.659 -0.868 0.23 0.345
000060 5e ba 3a 33 d8 37 41 b4 09 b1 a6 2f 6a c0 c7 bf
       -0.796 0.2258 0.4902 -0.2659 -0.1573 0.1195 -2.207 -1.944
000070 be bf 80 c2 97 c2 1e c2 ac bf db bc c0 b8 97 32
       -1.936 -3.25 -3.295 -3.059 -1.918 -1.214 -0.5938 0.2059
000080 f2 b8 af 23 93 36 22 ba 49 b9 9f ac 68 32 58 34
       -0.618 0.01501 0.411 -0.7666 -0.6606 -0.0722 0.2002 0.2715
000090 99 40 63 40 29 41 2c 43 bc 41 b1 42 d7 3c e6 3c
       2.299 2.193 2.58 3.586 2.867 3.346 1.21 1.225
0000a0 20 3a ca 3a 20 bc 79 b9 32 3e 2c bc 40 bc 60 33
       0.7656 0.8486 -1.031 -0.684 1.549 -1.043 -1.0625 0.2305
0000b0 ab b4 27 b2 d0 3e 66 bc 44 b9 c5 41 af bb 70 ba
       -0.2917 -0.1923 1.703 -1.1 -0.658 2.885 -0.9604 -0.8047
0000c0 de 39 a9 b6 17 b5 48 35 51 b6 36 b2 69 3b 6f b9
       0.7334 -0.4163 -0.318 0.33 -0.3948 -0.1941 0.9263 -0.679
0000d0 57 b7 c3 2c 8a ac ec b0 ce 35 64 be f0 3d 5e 34
       -0.4587 0.0744 -0.0709 -0.1538 0.3628 -1.598 1.484 0.273
0000e0 6e c1 b3 3f 09 38 ef ba 17 3a 71 af b5 c0 c6 3e
       -2.715 1.925 0.5044 -0.8667 0.761 -0.1163 -2.354 1.693
0000f0 7e b8 1a c4 a1 40 31 34 f5 bc 1c 3d 17 34 f9 b6
       -0.5615 -4.1 2.314 0.262 -1.239 1.277 0.2556 -0.4358
000100 33 34 5f 34 1d b9 80 3a ad 30 65 b5 e9 29 90 38
       0.2625 0.2732 -0.639 0.8125 0.1461 -0.3372 0.04617 0.5703
000110 51 36 10 33 86 b6 1d 25 15 3a e9 bc 15 b8 be ac
       0.3948 0.2207 -0.4077 0.01997 0.7603 -1.228 -0.5103 -0.0741
000120 62 3c af b6 c8 b8 5a 39 b8 aa 23 3a f7 ba b4 b9
       1.096 -0.4177 -0.5977 0.669 -0.0525 0.767 -0.8706 -0.713
000130 74 ae 6b 3a d3 b4 54 b9 02 3b 1f 36 d8 38 6f 33
       -0.1008 0.8022 -0.3015 -0.666 0.876 0.3826 0.6055 0.2323
000140 8c 97 50 33 57 3f 88 39 73 b4 b3 b8 09 ae 0d b8
       -0.0018425 0.2285 1.835 0.6914 -0.278 -0.5874 -0.0943 -0.5063
000150 08 bf 9b b5 7c 2c 27 3f 74 3b 47 31 2a ba 0e 9b
       -1.758 -0.3503 0.07007 1.788 0.9316 0.1649 -0.7705 -0.003445
000160 cc 28 ce bf 3d b3 c5 35 6e 38 90 9e 12 b6 2f b9
       0.03748 -1.951 -0.2262 0.3606 0.5537 -0.00641 -0.3794 -0.648
000170 c8 b5 e5 b7 9e b9 d4 2f 3a 31 df c7 13 39 0a 45
       -0.3613 -0.4934 -0.702 0.1223 0.1633 -7.87 0.6343 5.04
000180 20 43 0b bc ea c0 4d 49 a4 bf ae c6 05 c9 c5 44
       3.562 -1.011 -2.457 10.6 -1.91 -6.68 -10.04 4.77
000190 43 49 3f ba e6 bb e4 bc 01 48 ac c1 98 c7 30 c6
       10.52 -0.781 -0.9873 -1.223 8.01 -2.836 -7.594 -6.188
0001a0 2e 3b 58 42 eb 38 02 3c 28 3c 6e 40 54 b9 50 c0
       0.8975 3.172 0.6147 1.002 1.039 2.215 -0.666 -2.156
0001b0 39 b4 89 b0 fc b8 7e ab 3c 26 c8 b8 7f 32 25 2f
       -0.264 -0.1417 -0.623 -0.05853 0.02435 -0.5977 0.203 0.11163
0001c0 66 b1 08 b4 9e b6 8d bc 0a 31 a2 b2 11 bd 5a 33
       -0.1687 -0.252 -0.4136 -1.138 0.1575 -0.2073 -1.267 0.2297
0001d0 77 a5 be b7 5e b3 35 b2 46 b7 d8 ae ac b4 a7 b8
       -0.02135 -0.484 -0.2302 -0.194 -0.4546 -0.10693 -0.292 -0.5815
0001e0 93 21 d7 a3 16 ad b6 2d 4a 32 40 2b 66 39 c1 2d
       0.01089 -0.01531 -0.07947 0.08923 0.1965 0.05664 0.675 0.0899
0001f0 7c 2e 34 a3 1b b1 3f ae 7a 3a c5 38 c2 26 08 3d
       0.1013 -0.01407 -0.1595 -0.0976 0.8096 0.596 0.0264 1.258

conv2d/Bias f2 [16]
000000 24 bd 01 41 2e 3c 8c 3a a3 41 96 35 60 41 7b bb
       -1.285 2.502 1.045 0.8184 2.818 0.349 2.688 -0.935
000010 b5 41 b5 c1 7a 32 84 3c ae b8 81 3d 98 b2 db 3c
       2.854 -2.854 0.2024 1.129 -0.585 1.376 -0.206 1.214

conv2d_1/Kernel f2 [16, 1, 1, 16]
000000 da 37 ac 2a 13 2b 7b 34 74 35 62 33 58 a6 ea 30
       0.4907 0.05212 0.05527 0.28 0.3408 0.2307 -0.02478 0.1536
000010 56 28 3a 36 48 2f 28 31 6d 28 ae 2d af 29 dc a4
       0.03387 0.3892 0.1138 0.1611 0.03458 0.08875 0.0444 -0.01898
000020 1d b2 44 b4 3c 21 d1 b3 ba 2f a2 a8 da 2a 9b b1
       -0.191 -0.2666 0.01022 -0.2443 0.1207 -0.0362 0.05353 -0.1752
000030 2d a8 15 32 21 b0 25 bc a2 27 55 2a 09 a5 c7 28
       -0.03262 0.1901 -0.129 -1.036 0.02982 0.04947 -0.01967 0.03732
000040 34 b3 9d b7 a9 b0 5b ae 07 b6 62 b8 df aa 4d b3
       -0.2251 -0.4758 -0.1456 -0.0993 -0.3767 -0.548 -0.05368 -0.2281
000050 53 ab d4 3c 28 bd 23 bb ad a4 69 a7 a6 ac 5d 25
       -0.05722 1.207 -1.289 -0.892 -0.01826 -0.02895 -0.07263 0.02095
000060 cd ab 71 a5 80 ba cd a6 fe ac d1 b5 57 28 5d aa
       -0.06094 -0.02126 -0.8125 -0.02657 -0.078 -0.3635 0.0339 -0.0497
000070 fc a3 eb 2d 83 9c 6c aa 29 2d f6 35 b5 31 14 a7
       -0.015594 0.09247 -0.004406 -0.05017 0.0806 0.3726 0.1783 -0.02765
000080 d1 1d d5 ac c5 a1 b4 30 fa 2d f0 23 95 2a 27 26
       0.00568 -0.0755 -0.01127 0.147 0.0934 0.0155 0.05142 0.02403
000090 dd 2d a2 31 06 aa ff 28 3b b1 ef a7 7f 9d a7 99
       0.0916 0.176 -0.04706 0.03903 -0.1635 -0.03099 -0.005367 -0.00276
0000a0 2d ac 82 a1 28 ac e0 a4 d6 a1 68 30 89 30 20 2f
       -0.06525 -0.01076 -0.06494 -0.01904 -0.0114 0.1377 0.1417 0.1113
0000b0 a2 a3 95 20 30 a6 e1 9f 27 2e bc a4 36 a6 4a 35
       -0.01491 0.00895 -0.02417 -0.007694 0.0961 -0.0185 -0.02426 0.3306
0000c0 f3 2e db 37 5a 9d 56 bc f4 2b cf a5 44 2d 73 b1
       0.1086 0.491 -0.005226 -1.084 0.06213 -0.02269 0.0823 -0.1703
0000d0 a8 30 49 30 20 b4 e4 b3 ed ad 15 a7 52 a9 77 91
       0.1455 0.1339 -0.2578 -0.2466 -0.0926 -0.02766 -0.04156 -0.000667
0000e0 87 2c 46 34 43 2d 51 ba 64 ae 2e b1 80 31 47 b5
       0.07074 0.267 0.0822 -0.7896 -0.09985 -0.1619 0.1719 -0.3298
0000f0 6c 35 ae 36 0a b2 23 38 25 a6 3e 2d 60 27 de a3
       0.3389 0.4175 -0.1887 0.517 -0.024 0.0819 0.02881 -0.015366
000100 24 b3 6c a7 63 a8 2f 25 d5 9b 07 36 96 36 4f 2e
       -0.2231 -0.02899 -0.03427 0.02025 -0.003824 0.3767 0.4116 0.0986
000110 65 a8 e2 2a 34 a6 0c a7 65 33 bd 96 5f a6 3d b9
       -0.03433 0.05377 -0.02423 -0.02753 0.2311 -0.001645 -0.02489 -0.655
000120 59 31 5e b1 cc 98 4b 32 97 21 f1 27 3f a6 93 92
       0.1671 -0.1677 -0.002342 0.1967 0.01092 0.03102 -0.0244 -0.0008025
000130 51 29 5b 2d 02 21 8d 2a 65 2f 0a a4 36 98 98 a2
       0.04153 0.0837 0.00978 0.05118 0.11554 -0.01578 -0.002056 -0.01288
000140 08 a4 83 2e 38 1f 45 b0 21 ac 67 a7 41 a2 de 9e
       -0.01575 0.10175 0.00705 -0.1334 -0.0645 -0.02892 -0.012215 -0.006706
000150 75 b1 7d b1 50 29 71 a9 30 32 02 1b b6 18 7a 1f
       -0.1705 -0.1715 0.0415 -0.0425 0.1934 0.003422 0.0023 0.0073
000160 b1 a9 26 32 d8 21 78 b1 02 a3 25 1c 5d 23 b3 a4
       -0.04446 0.1921 0.01141 -0.1709 -0.01369 0.004047 0.01438 -0.01836
000170 e3 ac 6c ac 1b 1c cb aa b3 1b 71 24 90 20 4d 1e
       -0.07635 -0.0691 0.00401 -0.05307 0.00376 0.01735 0.00891 0.006153
000180 14 32 55 b3 03 30 cf 2c 79 b3 5d b1 89 31 4c a9
       0.19 -0.2291 0.1254 0.07513 -0.2335 -0.1676 0.173 -0.04138
000190 95 37 e8 38 10 b8 7b a9 05 33 18 2c 0b 28 4c 21
       0.4739 0.6133 -0.508 -0.04282 0.2194 0.06396 0.0316 0.010345
0001a0 1c ac 61 2b f8 a1 43 2f ee 34 79 b2 da 33 f6 23
       -0.0642 0.05765 -0.01166 0.11346 0.308 -0.2023 0.2454 0.01555
0001b0 50 34 31 34 f3 ac 6e a2 a2 b1 fc a4 5c 1c 18 a0
       0.2695 0.262 -0.07733 -0.01256 -0.176 -0.01947 0.004257 -0.007996
0001c0 61 2f 6d ad 40 a8 11 2d d8 a8 02 2a ac ad 92 98
       0.1153 -0.0848 -0.0332 0.07916 -0.03784 0.04694 -0.0886 -0.002232
0001d0 14 b1 ac 1f ba 2b 55 23 cf 33 f8 a8 83 9c 3a 94
       -0.1587 0.007492 0.06036 0.01432 0.244 -0.03882 -0.004406 -0.001032
0001e0 78 b0 07 29 7b 20 8e a9 11 2a 5c af 3d 28 2b a5
       -0.1396 0.03928 0.00875 -0.0434 0.0474 -0.115 0.0331 -0.02019
0001f0 96 31 d7 2c 7b a8 dc 9c d8 b3 8c 20 a7 1c 29 a2
       0.1746 0.0756 -0.035 -0.004745 -0.2451 0.00888 0.004543 -0.01203

conv2d_1/Bias f2 [16]
000000 74 ba f7 3e b9 43 56 38 a5 3c ae ad ae 27 a0 ac
       -0.8066 1.741 3.861 0.542 1.161 -0.08875 0.03 -0.07227
000010 5b b4 05 3c 8c 3d 99 3c 1e 3a 0f 33 75 3c b5 3c
       -0.2722 1.005 1.387 1.149 0.7646 0.2206 1.114 1.177

depthwise_conv2d/Kernel f2 [1, 3, 3, 16]
000000 33 30 5a 2f 8d 2c f3 ad d4 be 9a af 52 30 12 ac
       0.1312 0.11487 0.0711 -0.09296 -1.707 -0.1188 0.135 -0.0636
000010 11 b1 69 bf aa c0 f6 bf 18 ae 0a 33 50 bc af bd
       -0.1583 -1.853 -2.332 -1.99 -0.0952 0.22 -1.078 -1.421
000020 62 30 58 30 43 2d d9 b0 a3 c0 e7 b0 07 32 c9 ac
       0.137 0.1357 0.0822 -0.1515 -2.318 -0.1532 0.1884 -0.07477
000030 6d b1 2b 36 63 3a 00 c1 ce b0 4e 32 f9 bd fa 34
       -0.1696 0.3855 0.7983 -2.5 -0.1501 0.197 -1.493 0.311
000040 12 a0 e0 29 1d 9e 61 a8 c4 b6 2f aa d7 98 53 10
       -0.00795 0.0459 -0.00597 -0.0342 -0.4229 -0.0483 -0.002363 0.000528
000050 f1 ab 14 3d 0c 3d 79 b6 33 a6 8e ac be b0 9b 3c
       -0.06204 1.27 1.262 -0.4045 -0.02422 -0.07117 -0.1482 1.151
000060 67 31 cb 30 8e 2f e1 b0 ce 2f 9e b4 67 34 77 af
       0.1688 0.1498 0.11804 -0.1525 0.12195 -0.2886 0.2751 -0.11664
000070 ab b4 49 c1 d0 c1 54 3a 85 b0 08 33 0d 35 52 c1
       -0.2917 -2.643 -2.906 0.791 -0.1412 0.2197 0.3157 -2.66
000080 a5 32 ce 31 02 30 6c b3 9f 36 57 b5 8f 34 af af
       0.2076 0.1814 0.1252 -0.2319 0.4138 -0.3337 0.285 -0.12006
000090 54 b5 b8 39 91 3b b6 3a 6b b2 fb 34 67 33 4f 38
       -0.333 0.715 0.946 0.839 -0.2006 0.3113 0.2313 0.5386
0000a0 e2 27 0d 2c b4 9b e5 aa de 32 f1 b0 89 9c e6 9e
       0.03079 0.0633 -0.003761 -0.05386 0.2146 -0.1544 -0.00443 -0.006737
0000b0 c3 b1 77 40 74 40 7a 31 c4 a6 a6 21 09 29 37 40
       -0.18 2.232 2.227 0.1711 -0.02643 0.01103 0.03934 2.107
0000c0 e8 12 78 2c 69 28 9f ac 39 3d 16 b0 2f 2e a1 a0
       0.000843 0.0698 0.03445 -0.0722 1.306 -0.1277 0.0966 -0.00904
0000d0 97 af 4a b4 02 b5 6b 3c 64 a6 4a ac 07 3a 04 b4
       -0.1186 -0.268 -0.313 1.1045 -0.02496 -0.067 0.7534 -0.251
0000e0 01 26 52 2d 55 29 79 af 2a 40 f5 b0 3e 2e d8 a5
       0.02345 0.0831 0.04166 -0.11676 2.082 -0.1549 0.09753 -0.02283
0000f0 5a b2 c1 2e 10 35 2d 3f 12 a9 c1 9b c1 3c a5 35
       -0.1985 0.1055 0.3164 1.794 -0.0396 -0.003786 1.188 0.3528
000100 36 a5 11 28 60 a3 c0 a0 e1 33 e7 a4 6f ac ce 25
       -0.02036 0.03177 -0.014404 -0.00928 0.2462 -0.01915 -0.0693 0.02267
000110 47 ae 7c 30 74 a6 cd 32 a7 27 2e a8 19 2d 08 af
       -0.0981 0.1401 -0.0252 0.2125 0.02989 -0.03265 0.07965 -0.10986

depthwise_conv2d/Bias f2 [16]
000000 9b 2b 86 21 f3 a1 45 39 c3 2d 1f 3c 02 95 7e 3e
       0.05942 0.01079 -0.01162 0.6587 0.09 1.03 -0.001223 1.623
000010 c2 3b 7c 9c 0e 29 6b 20 4c 3e 19 2a 86 38 9c 34
       0.9697 -0.00438 0.0395 0.00863 1.574 0.04764 0.5654 0.288

conv2d_2/Kernel f2 [8, 1, 1, 16]
000000 a2 2d f0 a7 75 ae c9 b2 46 30 99 3b 14 b1 b0 b3
       0.088 -0.031 -0.1009 -0.212 0.1335 0.9497 -0.1587 -0.2402
000010 2f 3c 29 b9 75 b8 69 37 a9 18 b7 34 55 a5 de b9
       1.046 -0.645 -0.557 0.4631 0.002275 0.2947 -0.02083 -0.7334
000020 ad 34 eb 35 36 a7 ec 29 34 24 ed 34 ef 36 89 ad
       0.2922 0.3699 -0.02817 0.04626 0.01642 0.3079 0.4333 -0.0865
000030 2d 2e c1 2c 2f af ee 2d 9b 39 05 b0 7d a8 5e b1
       0.0965 0.0743 -0.11224 0.09265 0.7007 -0.1256 -0.03506 -0.1677
000040 81 b7 72 ab ab b5 28 b5 70 2c 4a b4 e2 b4 20 2a
       -0.469 -0.05817 -0.3542 -0.3223 0.06934 -0.268 -0.3052 0.04785
000050 f9 b3 cf b5 63 b6 d3 2e ed 35 be 32 16 2a c0 b6
       -0.2491 -0.363 -0.3992 0.1066 0.3704 0.2107 0.04755 -0.4219
000060 63 b8 ea 32 95 b8 46 30 75 b6 3d 38 05 bc b5 37
       -0.5483 0.2161 -0.5728 0.1335 -0.4036 0.53 -1.005 0.4817
000070 9e b3 29 b8 f9 37 cf ba eb 36 b7 2f 90 a7 d2 b6
       -0.238 -0.52 0.4983 -0.851 0.4324 0.12054 -0.02954 -0.4263
000080 42 b5 2c 34 c2 3a 16 33 64 ab 42 38 4f 2f cd 36
       -0.3286 0.2607 0.8447 0.2214 -0.05774 0.532 0.1142 0.425
000090 9b 34 c7 38 ae b5 59 26 15 34 1b b6 c5 b7 40 b7
       0.2878 0.597 -0.355 0.0248 0.2551 -0.3816 -0.4856 -0.4531
0000a0 ee b3 40 b1 9f 37 e5 36 b2 b2 b3 b5 b0 b7 f9 a9
       -0.2478 -0.1641 0.4763 0.431 -0.2092 -0.3562 -0.4805 -0.04666
0000b0 c4 2f 1d 2c b7 b9 9b 39 cd 39 c7 bd 65 2c 3b b6
       0.12134 0.0643 -0.7144 0.7007 0.725 -1.444 0.06866 -0.3894
0000c0 d4 af f1 ad dc b4 81 b7 7d b6 22 b8 f0 32 ba 1e
       -0.1223 -0.09283 -0.3037 -0.469 -0.4055 -0.5166 0.2168 0.00657
0000d0 fe b5 14 30 2f b2 85 b8 f7 b7 c0 b4 96 34 ee 33
       -0.3745 0.1274 -0.1932 -0.565 -0.4978 -0.2969 0.2866 0.2478
0000e0 47 38 1b 39 41 35 43 ae 88 9e 29 2e c3 a9 38 31
       0.5347 0.638 0.3284 -0.09784 -0.00638 0.09625 -0.045 0.1631
0000f0 1b 34 73 af 5b 2f 29 36 95 b4 99 2d 53 2d 19 2d
       0.2566 -0.1164 0.1149 0.385 -0.2864 0.08746 0.0832 0.07965

conv2d_2/Bias f2 [8]
000000 39 2f a7 b4 41 ae 10 35 50 ae 2f 3a 7e a2 d5 2c
       0.11285 -0.2908 -0.0977 0.3164 -0.09863 0.773 -0.01268 0.0755

conv2d_3/Kernel f2 [16, 1, 1, 8]
000000 d8 ae 76 b1 b7 b2 15 34 a9 36 61 ae af 35 0f b6
       -0.10693 -0.1707 -0.2098 0.2551 0.4163 -0.0997 0.3552 -0.3787
000010 8a b6 b2 b2 59 b4 b3 b0 44 30 4e 2b df 34 e2 b6
       -0.4087 -0.2092 -0.2717 -0.1469 0.1333 0.05707 0.3044 -0.4302
000020 f1 af 01 b0 d1 35 25 3a ca b4 bf 30 f6 37 e1 b1
       -0.1241 -0.1251 0.3635 0.768 -0.2993 0.1483 0.4976 -0.1837
000030 91 b4 14 af 54 b8 20 25 e5 33 90 2f 89 2c 60 29
       -0.2854 -0.1106 -0.541 0.02002 0.2467 0.11816 0.07086 0.042
000040 03 b4 79 b2 d8 36 c8 37 92 39 4f 31 70 1c 62 b8
       -0.2507 -0.2023 0.4277 0.4863 0.6963 0.1659 0.004333 -0.548
000050 36 b6 6d a9 ac b2 8f af 3a b4 3c a1 40 35 eb 2d
       -0.3882 -0.0424 -0.2085 -0.1181 -0.2642 -0.01022 0.3281 0.09247
000060 e2 af 62 33 d3 38 14 3b bc b7 b8 39 18 b5 3a b6
       -0.12317 0.2307 0.603 0.885 -0.4834 0.715 -0.3184 -0.3892
000070 5e 38 33 34 3b 2b 81 ae 51 ba b6 2e 36 38 49 bc
       0.546 0.2625 0.0565 -0.1016 -0.7896 0.10486 0.5264 -1.071
000080 c2 25 71 ac 13 30 f9 26 dd 17 ba 25 8a b4 c9 9b
       0.02249 -0.0694 0.1273 0.02724 0.00192 0.02237 -0.2837 -0.003801
000090 48 3a ec ab a1 b3 80 35 0b 39 b2 2f ec 34 26 b5
       0.785 -0.0619 -0.2384 0.3438 0.6304 0.12024 0.3076 -0.3218
0000a0 e7 39 fd ad b6 2d 98 34 70 39 2f 30 b7 b6 5a b7
       0.738 -0.09357 0.08923 0.287 0.6797 0.1307 -0.4197 -0.4595
0000b0 4f ac 89 b0 12 b6 ac 38 ea 38 ab 24 25 b6 2e b8
       -0.0673 -0.1417 -0.3794 0.584 0.6143 0.01823 -0.384 -0.5225
0000c0 7d 34 4a bf e8 32 81 23 60 35 d5 23 a5 b0 ea 26
       0.2805 -1.822 0.2158 0.014656 0.336 0.0153 -0.1451 0.02701
0000d0 cb b1 f5 2c 16 b8 09 2e a0 35 37 3b 4c 32 40 b4
       -0.181 0.07745 -0.5107 0.0943 0.3516 0.902 0.1968 -0.2656
0000e0 62 2f b0 ab de b1 48 30 05 38 75 34 6c 32 14 b4
       0.11536 -0.06006 -0.1833 0.1338 0.5024 0.2786 0.2007 -0.255
0000f0 b7 3b fc 23 73 2c 91 31 9f 39 04 30 f0 b5 b9 b6
       0.9644 0.015594 0.0695 0.174 0.7026 0.1255 -0.371 -0.4202

conv2d_3/Bias f2 [16]
000000 58 2f 4c 32 a9 b1 58 3d f0 b9 97 38 62 b6 a2 b6
       0.11475 0.1968 -0.1769 1.336 -0.742 0.5737 -0.399 -0.4146
000010 bc 38 33 be 72 bd 68 b9 63 aa 45 b8 d1 ad 8f bd
       0.592 -1.55 -1.361 -0.676 -0.0499 -0.5337 -0.0909 -1.39

conv2d_4/Kernel f2 [16, 1, 1, 16]
000000 ec bd 28 3f ea bb 20 45 90 c2 36 bc 6f 39 19 3c
       -1.48 1.789 -0.9893 5.125 -3.281 -1.053 0.679 1.024
000010 53 be c5 37 91 b3 2d c4 05 3c 8d 42 ef c0 45 b0
       -1.581 0.4856 -0.2365 -4.176 1.005 3.275 -2.467 -0.1334
000020 0b ba 6d c0 e3 be 9e bc 9f 40 05 bc 08 bc f0 c1
       -0.7554 -2.213 -1.722 -1.154 2.31 -1.005 -1.008 -2.969
000030 fc ad 08 3f e6 3f c2 3c 28 bf c7 46 f3 3b e2 39
       -0.0935 1.758 1.975 1.189 -1.789 6.777 0.9937 0.7354
000040 8c 3e fa 3b e0 bb 8f c3 d4 3a 90 ba bc 37 ab ac
       1.637 0.997 -0.9844 -3.78 0.8535 -0.8203 0.4834 -0.07294
000050 a8 bc 8c 3c 1f 35 c1 b9 ef 3c c0 b6 23 3e a3 c0
       -1.164 1.137 0.32 -0.719 1.233 -0.4219 1.534 -2.318
000060 12 34 4f bb 50 36 5f bc ff b8 04 3e 72 39 09 b4
       0.2544 -0.9136 0.3945 -1.093 -0.6245 1.504 0.6807 -0.2522
000070 4f bc 50 38 78 ba ce ac f1 bd 8c bc 9d b6 0c 46
       -1.077 0.539 -0.8086 -0.0751 -1.485 -1.137 -0.4133 6.047
000080 8e 48 e5 42 6e 38 2d 3c 9c 36 8a b8 c5 3a 9c 46
       9.11 3.447 0.5537 1.044 0.413 -0.5674 0.846 6.61
000090 b9 bb 5e 2d 97 37 c8 2b 82 45 5e 40 53 bc 48 31
       -0.9653 0.08386 0.4744 0.0608 5.508 2.184 -1.081 0.165
0000a0 17 39 6b bc 5f 39 b1 3a 78 bf ef 3d 84 be 78 3e
       0.636 -1.1045 0.6714 0.8364 -1.867 1.483 -1.629 1.617
0000b0 0c 3e 0e 30 62 b8 05 bf 5a c0 7b b4 09 c4 05 c1
       1.512 0.1267 -0.548 -1.755 -2.176 -0.28 -4.035 -2.51
0000c0 e2 41 34 a8 d8 43 65 23 11 ba 2f 2d 8b c3 a7 3f
       2.941 -0.03284 3.922 0.01444 -0.7583 0.081 -3.771 1.913
0000d0 13 34 60 bd a0 bc f3 b4 8e c4 e7 35 b1 a4 a4 b8
       0.2546 -1.344 -1.156 -0.3093 -4.555 0.369 -0.01833 -0.58
0000e0 11 3f 4b c0 d5 be ba 32 fd 3c c2 34 bd 44 de c6
       1.767 -2.146 -1.708 0.2102 1.247 0.2974 4.74 -6.867
0000f0 95 b8 0e b4 6a ab 04 39 c6 44 1b 3b a2 bd a2 b5
       -0.5728 -0.2534 -0.05792 0.627 4.773 0.888 -1.408 -0.352
000100 aa ba fd bd 06 b1 90 b6 2a c3 04 c2 16 3b 07 be
       -0.833 -1.497 -0.157 -0.4102 -3.582 -3.008 0.8857 -1.507
000110 cb b8 19 bd 96 bd 2b c3 f7 b0 15 b8 c8 3a 19 b9
       -0.599 -1.274 -1.396 -3.584 -0.1552 -0.5103 0.8477 -0.637
000120 54 43 15 45 35 30 e3 bb f5 be db 3e a8 41 7e 3f
       3.664 5.082 0.1315 -0.986 -1.739 1.714 2.828 1.873
000130 03 40 d3 ba 36 ba 99 26 1b 45 af 39 02 41 00 b5
       2.006 -0.853 -0.7764 0.02577 5.105 0.7104 2.504 -0.3125
000140 1a a6 f7 b4 17 38 84 3e dc b6 ea c1 9d 40 d0 b9
       -0.02383 -0.3103 0.511 1.629 -0.4287 -2.957 2.307 -0.7266
000150 66 3a e9 42 4f 43 51 bd d3 3e f6 bb 37 be 48 34
       0.8 3.455 3.654 -1.329 1.706 -0.995 -1.554 0.2676
000160 86 c1 42 bd 45 be 3c bc d0 38 db 43 19 b4 b1 bd
       -2.762 -1.314 -1.567 -1.059 0.6016 3.928 -0.256 -1.423
000170 13 43 e8 c4 24 c5 66 1e f8 32 79 3c d8 39 31 c2
       3.537 -4.906 -5.14 0.00625 0.2178 1.118 0.7305 -3.096
000180 a6 b6 10 be 0e 40 69 31 0a 37 16 3a c9 bc 4b 3d
       -0.4155 -1.516 2.027 0.1691 0.44 0.7607 -1.196 1.323
000190 26 c0 92 ba f5 3f 85 bf 2f c0 47 2e 1f 3e 64 36
       -2.074 -0.8213 1.989 -1.88 -2.092 0.0981 1.53 0.3994
0001a0 ad bc 68 40 6a bc e2 b7 ba b9 be 36 6d a1 d3 b9
       -1.169 2.203 -1.104 -0.4927 -0.716 0.4214 -0.0106 -0.728
0001b0 4e bf 38 bd be 3c 56 c1 99 42 7e 35 91 c3 b4 3c
       -1.826 -1.305 1.186 -2.668 3.299 0.3433 -3.783 1.176
0001c0 7a b2 12 b0 54 ac 45 b4 00 42 78 3a ec b6 54 bf
       -0.2024 -0.1272 -0.0676 -0.2668 3.0 0.8086 -0.4326 -1.832
0001d0 ce 40 91 c0 84 3d 21 bf 07 be 38 bd 8b 2b 52 3c
       2.402 -2.283 1.379 -1.782 -1.507 -1.305 0.05893 1.08
0001e0 72 2d 6c 44 23 44 cd bd 8d 3f 3a af 8e 3d 95 47
       0.0851 4.42 4.137 -1.45 1.888 -0.1129 1.389 7.582
0001f0 48 38 4c b8 ab ba 78 3a 62 3d ce 41 35 2e 2e a9
       0.535 -0.537 -0.8335 0.8086 1.346 2.902 0.097 -0.04047

conv2d_4/Bias f2 [16]
000000 4d be df b6 2c 3d 7c 3a 2c c6 11 36 8f bd 2c bd
       -1.575 -0.4294 1.293 0.8105 -6.17 0.3792 -1.39 -1.293
000010 bb 42 a3 c5 cb b6 ea 2d 2e 3e bf 3d c7 b2 3d c4
       3.365 -5.637 -0.4246 0.0924 1.545 1.437 -0.2118 -4.24

conv2d_5/Kernel f2 [72, 1, 1, 16]
000000 9a b8 29 b4 23 34 89 b4 ba b0 20 2c 0f 32 48 30
       -0.575 -0.26 0.2585 -0.2834 -0.1477 0.06445 0.1893 0.1338
000010 c4 30 ad 33 28 bb 2d 3a a6 b4 b6 b4 3e 35 e5 34
       0.1489 0.2399 -0.8945 0.772 -0.2905 -0.2944 0.3276 0.306
000020 85 b4 d6 2c c9 28 37 35 ce 2d 16 b2 eb b5 13 31
       -0.2825 0.07556 0.03738 0.326 0.0907 -0.1902 -0.3699 0.1586
000030 9c 36 40 9d 9e 2f 9a 27 28 b2 5a 2c ad af cd b2
       0.413 -0.005127 0.119 0.0297 -0.1924 0.068 -0.11993 -0.2125
000040 b2 2d 54 aa 4f 2c dc 13 fe 30 80 a9 bf a0 20 a6
       0.089 -0.04944 0.0673 0.0009594 0.156 -0.04297 -0.00927 -0.02393
000050 93 ac 9c 30 06 a7 8d a1 50 ae e7 26 1b 28 76 2c
       -0.0715 0.144 -0.02744 -0.01084 -0.09863 0.02696 0.03207 0.0697
000060 aa 29 4b ab 03 30 69 2a 9f 2a 08 af 68 b1 7a 32
       0.04425 -0.05698 0.1254 0.05008 0.05173 -0.10986 -0.169 0.2024
000070 74 23 b7 26 10 2b 2e 2c b0 ac 5d a9 25 2c d0 a9
       0.01456 0.02623 0.05518 0.0653 -0.07324 -0.0419 0.06476 -0.0454
000080 0b 24 90 b0 ac 20 fc a4 22 a8 55 2c 37 30 78 2e
       0.0158 -0.1426 0.009125 -0.01947 -0.0323 0.0677 0.1317 0.1011
000090 dc 2a f1 25 0f b0 a7 34 0b ac 2e ac 29 2f 98 2c
       0.0536 0.02321 -0.1268 0.2908 -0.0632 -0.0653 0.1119 0.0718
0000a0 e4 b2 15 2f 43 2f 9b aa 2a a5 09 af f7 1f ec 30
       -0.2153 0.11066 0.11346 -0.0516 -0.02017 -0.1099 0.00778 0.1538
0000b0 4c 28 df a9 fb a2 8e ab ee 29 54 29 30 ae 3f 26
       0.03357 -0.04587 -0.01363 -0.05902 0.04633 0.04163 -0.0967 0.0244
0000c0 ab b1 34 29 b1 a6 ee 2e 8f b0 58 b9 9e ac 65 b5
       -0.1771 0.04065 -0.02614 0.1083 -0.1425 -0.668 -0.07214 -0.3372
0000d0 e9 38 b6 39 01 b8 89 2f 67 38 4f b8 d7 ad ce b2
       0.614 0.714 -0.5005 0.11774 0.5503 -0.5386 -0.09125 -0.2126
0000e0 6f 29 68 a2 c5 22 3c a0 fb 2c 53 a5 ec 25 1c a0
       0.04245 -0.01251 0.01322 -0.00827 0.0778 -0.0208 0.02313 -0.008026
0000f0 df a7 81 2c d8 9f 15 a5 94 a8 7c 25 ca 1e df 29
       -0.03075 0.0704 -0.00766 -0.01985 -0.03577 0.02142 0.00663 0.04587
000100 8a 26 b8 22 05 23 31 b0 e6 1f 3a a9 2e a5 61 ad
       0.02554 0.01312 0.01371 -0.131 0.007713 -0.04083 -0.02023 -0.08405
000110 c0 29 67 2b 08 26 40 a5 56 28 ec ae 51 a4 a8 ae
       0.04492 0.05783 0.02356 -0.02051 0.03387 -0.10815 -0.01686 -0.104
000120 14 b1 3f b6 80 a9 71 21 38 30 b2 ac 62 34 e4 b9
       -0.1587 -0.3904 -0.04297 0.01063 0.1318 -0.07336 0.274 -0.7363
000130 1e 9e 90 ad ea 2e 82 ac f6 33 7a 2f 36 b1 be 39
       -0.005974 -0.0869 0.10803 -0.07043 0.2488 0.1168 -0.1628 0.718
000140 5c ab 92 ac 9c 2d a4 a1 4d 9d 10 2d 3c 25 64 24
       -0.0575 -0.0714 0.08765 -0.01102 -0.005177 0.0791 0.02045 0.01715
000150 fb a7 4e a6 a2 2d db a5 57 ac c3 23 6e 28 b5 26
       -0.03117 -0.02463 0.088 -0.02287 -0.0678 0.01516 0.0346 0.0262
000160 6c 2d c8 33 4f b0 97 30 16 a9 07 24 98 b0 73 36
       0.0847 0.2432 -0.1346 0.1434 -0.03973 0.01573 -0.1436 0.403
000170 cb 30 28 a9 66 2b 99 34 4f af 92 b0 15 2e 9e b5
       0.1498 -0.04028 0.0578 0.2874 -0.1142 -0.1428 0.09503 -0.351
000180 84 30 86 aa bf 31 08 b2 b0 33 33 b3 60 b4 90 2d
       0.1411 -0.05096 0.1796 -0.1885 0.2402 -0.225 -0.2734 0.0869
000190 40 ab d2 34 35 af ce 2c 2c b4 f5 33 ad aa bc b1
       -0.05664 0.3013 -0.1126 0.0751 -0.2607 0.2487 -0.05215 -0.1792
0001a0 19 34 03 1e 67 37 4c b4 61 35 d4 26 b1 af 8c a8
       0.256 0.00587 0.4626 -0.2686 0.3362 0.02667 -0.1202 -0.03552
0001b0 e8 35 14 b4 d6 33 3d 34 84 3b 27 36 7a 3d 3a 30
       0.3691 -0.255 0.2449 0.265 0.9395 0.3845 1.369 0.1321
0001c0 33 35 43 b3 9d b4 9e 2c 31 a6 1e 32 8d 29 fc 2c
       0.325 -0.2269 -0.2883 0.07214 -0.02419 0.1912 0.04337 0.0779
0001d0 9d a4 61 a9 a6 30 36 32 6f 9e 0a 30 e4 28 51 27
       -0.01802 -0.04202 0.1453 0.1941 -0.006283 0.1262 0.0382 0.02858
0001e0 3e 2c d5 2a 8d af b0 2c 60 2c 9f b0 92 a2 ad 22
       0.0663 0.05338 -0.118 0.07324 0.06836 -0.1444 -0.01283 0.01304
0001f0 1a 29 f8 2a 8a b0 33 24 33 2e 26 a8 e4 a8 66 ad
       0.03986 0.05444 -0.1418 0.0164 0.09686 -0.0324 -0.0382 -0.08435

conv2d_5/Bias f2 [72]
000000 78 3c 1a b6 42 3d 5f 3b 58 3d 2a 3a 57 be 99 3d
       1.117 -0.3813 1.314 0.9214 1.336 0.7705 -1.585 1.399
000010 20 3c 6d b0 7d 3d fa 39 a0 38 27 be 24 3c 3a 3c
       1.031 -0.1383 1.372 0.747 0.578 -1.538 1.035 1.057
000020 e7 af bb 3a 79 3c 8e 3b c8 3e f6 3c b2 3c 8a 3d
       -0.1235 0.8413 1.118 0.9443 1.695 1.24 1.174 1.385
000030 98 b6 e8 ad dc 3c 35 3c 33 bc 13 38 45 3d 25 39
       -0.412 -0.0923 1.215 1.052 -1.05 0.5093 1.317 0.643
000040 e9 3b c4 3c fc 3a 41 3c 9e 3a 3b 39 f4 3d 9c 3b
       0.989 1.191 0.873 1.063 0.827 0.654 1.488 0.951
000050 02 3d 1b 3d 65 3c d1 3c 9d b6 14 3b 42 3c dc 3c
       1.252 1.276 1.099 1.204 -0.4133 0.885 1.064 1.215
000060 d5 3c 70 b4 03 3b cd 35 e0 3c 50 3c 7d 3a 0c 3e
       1.208 -0.2773 0.8765 0.3625 1.219 1.078 0.811 1.512
000070 39 37 6f bb f4 bd 40 32 d5 36 d1 3a 62 b9 92 34
       0.4514 -0.929 -1.488 0.1953 0.427 0.852 -0.673 0.2856
000080 3f 3e 6c 3c 40 3c c8 3a 77 ad 63 3e db 3c 74 3c
       1.562 1.105 1.0625 0.8477 -0.0854 1.597 1.214 1.113

depthwise_conv2d_1/Kernel f2 [1, 3, 3, 72]
000000 ca 32 dd 33 39 38 4e bf 42 38 3e b5 3d b3 e0 c4
       0.2122 0.2457 0.528 -1.826 0.532 -0.3276 -0.2262 -4.875
000010 fc 3a 89 b1 a2 3f 75 34 ec b3 ee 34 f3 3c 97 3f
       0.873 -0.173 1.908 0.2786 -0.2476 0.308 1.237 1.897
000020 0a b9 d3 38 bd 37 13 b8 dd c0 c6 3c 95 ba 79 37
       -0.63 0.603 0.4836 -0.5093 -2.432 1.193 -0.8228 0.467
000030 0f b1 0d 2a c9 41 44 bc c9 31 1e ac e3 b9 0a 35
       -0.1581 0.04727 2.893 -1.066 0.1808 -0.06433 -0.736 0.315
000040 55 b6 7f b4 a6 3b b3 b3 13 3a 1e bc c2 c4 bd b8
       -0.3958 -0.281 0.956 -0.2406 0.7593 -1.029 -4.758 -0.5923
000050 c2 bd 61 b7 3d b0 9d 38 ce b7 03 3c 6f 3a 06 3e
       -1.439 -0.4612 -0.1324 0.5767 -0.4878 1.003 0.804 1.506
000060 13 36 bc 43 3c 3e af 34 61 32 98 3d f7 b7 9c b1
       0.3796 3.867 1.559 0.2927 0.1993 1.398 -0.4978 -0.1753
000070 59 37 52 b5 c6 31 2e 35 f6 b0 be 37 9c b0 a0 32
       0.4592 -0.3325 0.1804 0.3237 -0.155 0.484 -0.144 0.207
000080 b9 b5 27 b9 e7 34 17 2e c9 3a 8b bb df 3f 0f be
       -0.3577 -0.644 0.3064 0.09515 0.848 -0.943 1.968 -1.515
000090 77 32 b2 36 0f bd 25 29 16 b8 a0 bc 35 b6 af 3a
       0.202 0.4185 -1.265 0.0402 -0.5107 -1.156 -0.388 0.8354
0000a0 17 c2 45 b3 a5 c4 6c 34 01 b5 1d 36 af 34 b8 be
       -3.045 -0.2272 -4.645 0.2764 -0.3127 0.382 0.2927 -1.68
0000b0 23 b8 93 3b b0 39 10 ba d3 c5 b3 3e d9 3d e6 3a
       -0.517 0.947 0.711 -0.758 -5.824 1.675 1.462 0.8623
0000c0 87 b3 2d 2f d9 36 2f 22 b3 35 8d b0 20 3f 8f 34
       -0.2352 0.1121 0.428 0.01208 0.3562 -0.1422 1.781 0.285
0000d0 e2 b8 e8 b9 05 39 9b b4 71 35 a0 b1 a0 45 57 b9
       -0.6104 -0.7383 0.6274 -0.2878 0.34 -0.1758 5.625 -0.6675
0000e0 8f 3f 7a b4 ae 36 0d b0 b2 b8 05 3d 63 bf 97 38
       1.89 -0.2798 0.4175 -0.1266 -0.587 1.255 -1.847 0.5737
0000f0 39 3d 30 43 95 3c 17 aa ae 39 80 41 a2 b8 96 3b
       1.306 3.594 1.1455 -0.04758 0.71 2.75 -0.579 0.948
000100 60 38 2a b6 1d 32 ac 35 ff 36 01 3d 2c b5 81 34
       0.547 -0.3853 0.191 0.3545 0.4373 1.251 -0.3232 0.2815
000110 4a b5 c8 3e 7a 35 55 3f b1 3a 12 b8 7e 2d 6c 32
       -0.3306 1.695 0.3423 1.833 0.8364 -0.509 0.0858 0.2007
000120 df 2a c8 31 a0 35 6f 3a 5a 2e 5a ae 7a ae 17 37
       0.05368 0.1807 0.3516 0.804 0.09924 -0.09924 -0.1012 0.443
000130 15 40 26 ad eb 40 22 27 a2 af 1a 32 94 b7 72 a9
       2.041 -0.08044 2.459 0.02786 -0.11926 0.1907 -0.4736 -0.04254
000140 9c b3 2e 38 e9 b9 2e b4 d6 c0 d1 34 4c 3d 28 32
       -0.2378 0.5225 -0.739 -0.2612 -2.418 0.301 1.324 0.1924
000150 e2 a0 f1 2c 2f b6 45 3c d9 33 13 ad c0 37 dc 2b
       -0.00954 0.0772 -0.3865 1.067 0.2452 -0.0793 0.4844 0.0614
000160 df 31 23 b6 0d b7 e9 af 3e b5 9e 38 c2 be b6 36
       0.1835 -0.3835 -0.4407 -0.1236 -0.3276 0.577 -1.689 0.4194
000170 87 b0 54 24 f1 b3 01 bc d8 b3 08 35 55 3c 96 b4
       -0.1415 0.0169 -0.2482 -1.001 -0.2451 0.3145 1.083 -0.2866
000180 72 3c 54 3b d2 b2 2b b3 cc 30 70 37 a9 ae 31 b4
       1.111 0.916 -0.2131 -0.224 0.1499 0.4648 -0.10406 -0.262
000190 49 34 55 b3 36 2c 18 2d 4d af 9c c0 5f b1 5c 29
       0.2678 -0.2291 0.0658 0.0796 -0.1141 -2.305 -0.1678 0.04187
0001a0 f6 af ac 3c 4b 30 89 34 db 35 01 ab 99 bd 51 3d
       -0.1244 1.168 0.1342 0.2834 0.366 -0.05472 -1.399 1.329
0001b0 89 32 7f 31 d7 ba 61 b0 01 3a 8f bd 3f b5 3a c1
       0.2042 0.1718 -0.855 -0.1368 0.7505 -1.39 -0.328 -2.613
0001c0 a8 aa 16 ad c3 b9 fc 34 43 b4 a8 34 9f b7 84 c0
       -0.052 -0.07947 -0.72 0.3115 -0.2664 0.291 -0.4763 -2.258
0001d0 5f b8 95 b0 ad 38 3f 30 3e 42 2a ba 63 c0 5d 39
       -0.5464 -0.1432 0.5845 0.1327 3.121 -0.7705 -2.193 0.6704
0001e0 16 b6 95 28 b4 2b 3a be 2b 34 14 b6 64 bc a7 34
       -0.3804 0.0358 0.06018 -1.557 0.2605 -0.38 -1.098 0.2908
0001f0 2c ba 70 b8 bd 34 00 3a 78 3c 92 3c e8 c5 25 3f
       -0.7715 -0.5547 0.2961 0.75 1.117 1.143 -5.906 1.786

depthwise_conv2d_1/Bias f2 [72]
000000 12 23 66 24 9b a0 7e b9 52 b7 67 35 aa 3c 5e b6
       0.01381 0.01718 -0.008995 -0.6865 -0.4575 0.3376 1.166 -0.398
000010 81 2d f0 40 af 2f 6e 2a fc 41 65 2d f9 b0 d7 b0
       0.086 2.469 0.12006 0.05023 2.992 0.0843 -0.1554 -0.1512
000020 66 3e 0f 30 b8 34 63 24 1e 40 89 af 1c a9 94 b4
       1.6 0.1268 0.295 0.01714 2.059 -0.11774 -0.03992 -0.2861
000030 06 3e d5 30 29 39 30 35 85 a3 9b 40 1a b9 f0 2e
       1.506 0.151 0.645 0.3242 -0.01469 2.303 -0.6377 0.1084
000040 0d ba bd 45 4b 3a fd b6 3b aa bd bf 29 c8 48 a4
       -0.7563 5.74 0.7866 -0.4368 -0.04868 -1.935 -8.32 -0.01672
000050 1a b4 4e 3f db b0 26 b6 27 3e 81 26 67 b4 7c 27
       -0.2563 1.826 -0.1517 -0.3843 1.538 0.0254 -0.2751 0.02924
000060 78 34 b0 10 92 2e 30 3c 0b b1 09 b1 93 41 e6 36
       0.2793 0.000572 0.10266 1.047 -0.1576 -0.1573 2.787 0.4312
000070 7d 31 79 43 2d 2f 34 2b 25 ac a7 a2 bd 3d 72 9e
       0.1715 3.736 0.1121 0.05627 -0.06476 -0.01299 1.435 -0.006294
000080 57 43 0b 25 d5 2b b4 21 be ba 41 48 bd 33 44 b5
       3.67 0.0197 0.0612 0.01114 -0.843 8.51 0.2418 -0.329

conv2d_6/Kernel f2 [24, 1, 1, 72]
000000 fb af bd 31 af a8 6a b1 a0 ae c4 b3 4f 27 c9 ad
       -0.1247 0.1793 -0.0366 -0.1692 -0.1035 -0.2427 0.02855 -0.0904
000010 e5 b0 04 ab c0 18 80 96 bd a9 45 36 35 b1 db 21
       -0.153 -0.0548 0.00232 -0.001587 -0.04483 0.3918 -0.1627 0.01144
000020 a8 32 a4 26 6f 1a f5 ad dc a6 30 ab 3c 32 2f 2b
       0.208 0.02594 0.003141 -0.0931 -0.0268 -0.05615 0.1948 0.05612
000030 2c b0 8e aa 48 b0 b6 b2 4a 30 c5 ac 1b 27 57 b2
       -0.1304 -0.0512 -0.1338 -0.2097 0.134 -0.0745 0.02776 -0.1981
000040 dd b4 4d b0 e9 b1 be 28 bc b2 60 ad 7e 2b 36 28
       -0.304 -0.1344 -0.1847 0.03705 -0.2104 -0.084 0.05853 0.0329
000050 9c b1 0d 20 df b0 1d 9f 06 ab 95 09 de ae a8 b2
       -0.1753 0.00791 -0.1522 -0.006947 -0.05487 0.0001704 -0.1073 -0.208
000060 9b 33 41 27 0b 2a 57 b2 30 34 a5 2d 96 ac 8f ad
       0.2377 0.02834 0.0472 -0.1981 0.2617 0.0882 -0.07166 -0.08685
000070 1c 34 3f 2a 7e ad aa a7 6f ab 8a 2d be 28 6e 2e
       0.2568 0.0488 -0.0858 -0.02994 -0.05807 0.08655 0.03705 0.10046
000080 e3 2d fd 2d 35 29 a9 30 d0 b1 74 30 f5 b3 84 b4
       0.092 0.09357 0.04068 0.1456 -0.1816 0.1392 -0.2487 -0.2822
000090 3b a7 37 aa 91 2e 00 2f 33 ac 8c 2d f5 1a 34 a4
       -0.02824 -0.04855 0.1026 0.1094 -0.0656 0.0867 0.003397 -0.01642
0000a0 a9 a9 ef 2c c5 2c df 30 0b b1 a6 2c 05 21 5e 2e
       -0.04422 0.0771 0.0745 0.1522 -0.1576 0.07263 0.0098 0.0995
0000b0 06 ab a7 30 3a ad ef 33 13 2d a5 2b a2 24 da a9
       -0.05487 0.1454 -0.08167 0.2479 0.0793 0.05972 0.0181 -0.04572
0000c0 10 a1 d2 ad a8 29 7c 23 c0 2d c5 2a e5 32 ab b0
       -0.00989 -0.09094 0.0442 0.01462 0.08984 0.0529 0.2155 -0.1459
0000d0 ef a0 37 ae 1c 2e 1f 28 82 28 30 b0 af 2b 5b 30
       -0.009636 -0.0971 0.09546 0.0322 0.03522 -0.1309 0.06003 0.1361
0000e0 a4 aa f9 ad e8 a8 fc 26 19 32 52 ad c4 2b 47 2b
       -0.05188 -0.0933 -0.03833 0.02728 0.1906 -0.0831 0.06067 0.05685
0000f0 c4 a8 15 25 e4 2c ee 30 1e 2d c8 b0 8c b0 d4 30
       -0.03723 0.01985 0.0764 0.154 0.07996 -0.1494 -0.1421 0.1509
000100 97 2c 5a ac 7e a9 aa b3 bc 2a ed 2b 3f 2d 5b 28
       0.0717 -0.068 -0.0429 -0.2395 0.0526 0.06192 0.082 0.03403
000110 74 b6 e4 25 86 28 ec 30 96 a7 31 35 31 ac ef 20
       -0.4033 0.02301 0.03534 0.1538 -0.02963 0.3245 -0.0655 0.009636
000120 44 33 32 2f f8 b0 4c b4 31 b2 0e b2 af a8 a3 b2
       0.227 0.1124 -0.1553 -0.2686 -0.1935 -0.1892 -0.0366 -0.2074
000130 81 b5 77 29 5e a2 63 2c 2a 32 d5 32 ea b1 37 2d
       -0.344 0.0427 -0.012436 0.06854 0.1926 0.2135 -0.1848 0.0815
000140 46 32 2a 2a ae 1d 8e 2b 19 37 0a 1d 20 33 29 af
       0.196 0.04816 0.005547 0.05902 0.4436 0.00492 0.2227 -0.1119
000150 aa ad df ad 46 b1 e1 2c cd 32 97 27 3a 31 43 b3
       -0.0885 -0.09174 -0.1648 0.07623 0.2125 0.02965 0.1633 -0.2269
000160 0a b4 1f a8 23 b2 cb 32 9d 2f 2a 2b 97 ac e1 31
       -0.2524 -0.0322 -0.1918 0.2123 0.11896 0.05597 -0.0717 0.1837
000170 2e b6 08 b3 48 b5 d6 2e e6 a6 a1 ad fc b0 fb b0
       -0.3862 -0.2197 -0.33 0.1068 -0.02695 -0.08795 -0.1558 -0.1556
000180 f7 28 56 30 aa a3 00 b5 a4 33 b8 31 a5 a5 e9 ab
       0.0388 0.1355 -0.01497 -0.3125 0.2388 0.1787 -0.02205 -0.0618
000190 64 aa 6a ad 5d 2c 27 b4 62 ad f4 22 c3 b1 ca a7
       -0.04993 -0.0846 0.0682 -0.2595 -0.0841 0.01358 -0.18 -0.03043
0001a0 5b ae 1a 36 bb 34 e7 35 2e ad 15 b1 2e b5 a3 31
       -0.0993 0.3813 0.2957 0.369 -0.08093 -0.1588 -0.3237 0.1761
0001b0 ab 9e f3 ae 4f ad bf a5 5f ac 27 2c 7b b4 36 b1
       -0.00651 -0.1086 -0.08295 -0.02245 -0.0683 0.0649 -0.28 -0.1628
0001c0 62 32 e8 af d2 34 5c a3 65 9f 77 2d be b0 4c 35
       0.1995 -0.12354 0.3013 -0.01437 -0.00722 0.0854 -0.1482 0.331
0001d0 25 32 04 32 f5 ac 61 af d7 b0 3c a5 34 ad 4c b3
       0.192 0.188 -0.07745 -0.1153 -0.1512 -0.02045 -0.0813 -0.228
0001e0 61 9a 4d a1 60 2a 30 ac da ac f2 2f b3 34 a2 2b
       -0.003115 -0.01035 0.0498 -0.0654 -0.0758 0.12415 0.2937 0.05963
0001f0 51 ae e4 af 17 2c d0 ac 3f 26 c3 ad 80 26 98 34
       -0.0987 -0.1233 0.0639 -0.0752 0.0244 -0.09 0.02539 0.287

conv2d_6/Bias f2 [24]
000000 24 33 93 30 4a b3 94 38 3c 25 fd b8 f5 be 94 35
       0.2231 0.143 -0.2278 0.5723 0.02045 -0.6235 -1.739 0.3486
000010 9d bc 50 34 2b 37 63 b9 a1 41 d9 bc c6 2b 26 b2
       -1.153 0.2695 0.448 -0.6733 2.814 -1.212 0.06073 -0.1921
000020 de 3a 81 38 9c c1 ec 3c a3 3f b9 3d f1 b3 9e b9
       0.8584 0.563 -2.805 1.23 1.909 1.431 -0.2482 -0.702

conv2d_7/Kernel f2 [88, 1, 1, 24]
000000 a7 b9 95 b2 27 bc 2d ba 06 b8 cf b8 5f 38 94 36
       -0.7065 -0.2057 -1.038 -0.772 -0.503 -0.601 0.5464 0.4111
000010 4e 34 d0 b5 c6 28 11 b4 2e b2 cd ac dd 33 71 a6
       0.269 -0.3633 0.0373 -0.2542 -0.1931 -0.075 0.2457 -0.02516
000020 6f 3a 3c b6 23 b6 b9 35 9b a8 45 b3 53 38 9f 9f
       0.804 -0.3896 -0.3835 0.3577 -0.03598 -0.2272 0.5405 -0.007442
000030 ca ae 4a af cd b4 b5 b0 5b aa 7a b1 5f a8 16 35
       -0.1061 -0.1139 -0.3 -0.1471 -0.04965 -0.1711 -0.03415 0.3179
000040 f6 1f d4 35 b5 24 03 ab 3f aa 8b 2f c2 a7 5a af
       0.007774 0.3643 0.01839 -0.05478 -0.0488 0.11786 -0.0303 -0.11487
000050 29 36 00 ae c4 af cd 35 34 a6 03 2c c8 33 0f 2d
       0.385 -0.09375 -0.12134 0.3625 -0.02423 0.0627 0.2432 0.07904
000060 1b b8 90 21 5d b7 16 b8 a0 ab 31 28 d3 b0 05 36
       -0.513 0.010864 -0.4602 -0.5107 -0.05957 0.03275 -0.1508 0.3762
000070 e3 0f c3 29 ba ae d3 2d 80 33 64 b4 04 b0 67 ad
       0.0004814 0.045 -0.1051 0.091 0.2344 -0.2744 -0.1255 -0.0844
000080 17 aa 2d 34 26 b8 c6 31 b8 b4 57 ad 5a 32 d1 b0
       -0.04758 0.261 -0.5186 0.1804 -0.295 -0.08344 0.1985 -0.1505
000090 2c 36 f1 2c ad 37 83 25 36 22 74 25 28 b0 2c b0
       0.3857 0.0772 0.4797 0.02153 0.01213 0.0213 -0.1299 -0.1304
0000a0 b4 2c a4 32 93 2d cb 2e 2a ab 43 24 d2 32 b7 9c
       0.0735 0.2075 0.0871 0.10614 -0.05597 0.01665 0.2131 -0.004604
0000b0 23 b7 9c 32 2f a0 b3 ae ef 31 71 1f 83 b7 86 a9
       -0.446 0.2065 -0.00817 -0.1047 0.1854 0.007267 -0.4695 -0.04315
0000c0 61 31 c7 2b 8f b0 d4 ac b6 ad 65 af c7 a8 89 ad
       0.1681 0.06076 -0.1425 -0.07544 -0.08923 -0.11554 -0.03732 -0.0865
0000d0 f6 30 cb 28 0a 34 9c 2e 0a 2c 0e 2f 8b 2d e1 b1
       0.155 0.03745 0.2524 0.1033 0.0631 0.1102 0.0866 -0.1837
0000e0 4f b2 ac b0 89 34 29 31 92 2a 4c 25 07 2d ff 34
       -0.1971 -0.146 0.2834 0.1613 0.05133 0.02069 0.07855 0.3123
0000f0 d8 ac 9b b2 01 30 73 28 c6 b4 93 b4 12 b4 f2 aa
       -0.0757 -0.2064 0.1251 0.03476 -0.2983 -0.286 -0.2544 -0.05426
000100 6c 25 ec b3 17 aa 96 a6 3d 34 6b ad d5 b0 3a 2c
       0.02118 -0.2476 -0.04758 -0.02573 0.265 -0.08466 -0.151 0.06604
000110 bc ad 39 2d 32 a8 c5 2a b0 ab 2f 30 be aa a9 ad
       -0.0896 0.0816 -0.03278 0.0529 -0.06006 0.1307 -0.05267 -0.08844
000120 0c a8 83 2b f9 2e da a5 62 ab a3 ac eb 2d b4 af
       -0.03162 0.0587 0.10895 -0.02286 -0.05768 -0.07245 0.09247 -0.12036
000130 41 2e 78 b2 f9 32 81 a1 b6 2c 7c 2c 14 30 e2 ab
       0.0977 -0.2021 0.2179 -0.01075 0.0736 0.07007 0.1274 -0.06158
000140 ba 2b 7a 24 cf 30 f7 b1 94 2e 21 ab c6 ab 92 29
       0.06036 0.01749 0.1503 -0.1864 0.1028 -0.0557 -0.06073 0.04352
000150 61 9d 9c af b6 a8 95 27 09 ab 51 b0 16 1e 11 2a
       -0.005253 -0.1189 -0.0368 0.02962 -0.05496 -0.1349 0.005943 0.0474
000160 6f 31 17 aa db a9 c1 2f 55 1e 86 21 00 aa a3 a1
       0.1698 -0.04758 -0.04575 0.12115 0.006184 0.01079 -0.04688 -0.01101
000170 9a ac a1 2b 2b 30 00 12 61 2a 28 25 05 a3 ae b0
       -0.0719 0.0596 0.1302 0.0007324 0.04984 0.02014 -0.01371 -0.1462
000180 04 38 07 95 6e 38 e8 31 a1 2f 1a 0e c0 a9 92 af
       0.502 -0.001227 0.5537 0.1846 0.1192 0.0003724 -0.04492 -0.1183
000190 c6 31 7a 36 00 38 46 35 1a b3 77 25 0b 33 c0 b3
       0.1804 0.4048 0.5 0.3296 -0.2219 0.02135 0.2201 -0.2422
0001a0 dc 2a 6b 2e ad 28 fb 9d 58 31 e0 2c 70 b6 d2 28
       0.0536 0.1003 0.03653 -0.00584 0.167 0.0762 -0.4023 0.03766
0001b0 3a b0 89 2c 66 ae f7 2f cc 2c 57 2e 52 9f 1f 2f
       -0.1321 0.07086 -0.1 0.12445 0.07495 0.09906 -0.00715 0.11127
0001c0 bd ae 28 34 c1 b0 66 21 07 31 a5 2a 1a 31 09 b1
       -0.1053 0.2598 -0.1486 0.010544 0.1571 0.0519 0.1594 -0.1573
0001d0 8f a8 07 ae 9f 30 ee 33 ca ad 21 9a 0a 2c ba b1
       -0.0356 -0.0942 0.1444 0.2478 -0.09045 -0.002993 0.0631 -0.179
0001e0 9d b3 da 25 9f a6 f5 35 93 b3 56 26 00 2c 40 ac
       -0.2379 0.02286 -0.02586 0.3723 -0.2367 0.02475 0.0625 -0.0664
0001f0 50 34 39 a1 a1 33 64 b0 0d b3 66 31 56 33 57 2a
       0.2695 -0.0102 0.2384 -0.1372 -0.2203 0.1687 0.2292 0.04953

conv2d_7/Bias f2 [88]
000000 09 36 72 32 2a b6 4f 3b 10 38 9e 38 fb 3c 42 3c
       0.3772 0.2014 -0.3853 0.9136 0.508 0.577 1.245 1.064
000010 46 39 b1 3b 11 3a 93 38 4c 2c 3d 9e 83 3c 11 3b
       0.659 0.9614 0.7583 0.572 0.06714 -0.006092 1.128 0.8833
000020 81 3c e0 35 c8 3b f3 37 24 29 69 3b 0e 3c 16 3a
       1.126 0.3672 0.9727 0.4968 0.04016 0.9263 1.014 0.7607
000030 34 3d 0d 3e 6a 3c d1 bc 6d 35 64 3c 47 3a 4a b5
       1.301 1.513 1.104 -1.204 0.339 1.098 0.7847 -0.3306
000040 07 b8 54 b9 ce 32 6a 3d bf 3c 5c 31 ea 3b 0f 3c
       -0.5034 -0.666 0.2126 1.354 1.187 0.1675 0.9893 1.015
000050 85 bc f9 3e 30 39 81 3c f8 3c 27 31 b9 3d d2 3a
       -1.13 1.743 0.6484 1.126 1.242 0.161 1.431 0.8525
000060 03 3c 7c 3a 4d 3c 90 30 9f 39 bc 3c 85 3b d5 3d
       1.003 0.8105 1.075 0.1426 0.7026 1.184 0.94 1.458
000070 38 3b 1a 3c a2 3c 9a 3a e2 3b 02 3c 45 3d 59 3c
       0.9023 1.025 1.158 0.825 0.9854 1.002 1.317 1.087
000080 9f 35 89 36 50 3c f1 39 b8 3c a4 3a 7e 3a 63 38
       0.3513 0.4084 1.078 0.7427 1.18 0.83 0.8115 0.5483
000090 22 af c5 a9 ab 3a b5 34 21 3b c3 3a bc 3a ee 39
       -0.11145 -0.04507 0.8335 0.2942 0.891 0.845 0.842 0.741
0000a0 aa 3a 97 3c 10 2e 60 3b 5b b1 63 3a e9 3c d2 3b
       0.833 1.147 0.0947 0.922 -0.1674 0.7983 1.228 0.9775

depthwise_conv2d_2/Kernel f2 [1, 3, 3, 88]
000000 26 2f 17 b7 45 b6 bf 2a c8 28 40 27 7e 37 4a 33
       0.1117 -0.443 -0.3918 0.0527 0.03735 0.02832 0.4683 0.2278
000010 e6 38 ec 2e f0 ae 16 a9 c8 b1 e1 35 c5 27 ea ad
       0.6123 0.10815 -0.1084 -0.03973 -0.1807 0.3674 0.03035 -0.0924
000020 87 b2 43 b5 11 ad 5e af 92 a9 51 b8 58 2d 8d b1
       -0.204 -0.3289 -0.07916 -0.1151 -0.04352 -0.5396 0.0835 -0.1735
000030 97 b0 8f 28 f8 ba 9d ae 8d ac 16 b8 15 30 b3 32
       -0.1434 0.0356 -0.871 -0.10333 -0.0711 -0.5107 0.1276 0.2094
000040 8c 39 ff b0 99 b5 12 b0 2a 29 35 b6 0b ac 3c ac
       0.6934 -0.1561 -0.3499 -0.1272 0.04034 -0.388 -0.0632 -0.06616
000050 51 b6 8c 99 cd b1 c0 b0 e7 30 78 b0 a4 2c b2 33
       -0.3948 -0.002708 -0.1813 -0.1484 0.1532 -0.1396 0.0725 0.2405
000060 20 2b 97 a2 6e 35 c6 b1 63 3c 78 31 a8 b5 ae 34
       0.05566 -0.01287 0.3394 -0.1804 1.097 0.1709 -0.3535 0.2925
000070 63 b1 8f a9 4c ac 96 2d 37 2b 04 b5 89 b6 d3 a6
       -0.1683 -0.04343 -0.06714 0.0873 0.05637 -0.3135 -0.4084 -0.02666
000080 94 29 fd 28 82 b2 5b 25 b1 af 71 b4 a9 b3 6d ae
       0.04358 0.03897 -0.2034 0.02092 -0.1202 -0.2776 -0.2394 -0.1004
000090 10 ae f0 b0 e7 37 8d b8 b1 2d 94 b8 2b 99 ee 38
       -0.0947 -0.1543 0.494 -0.569 0.0889 -0.5723 -0.002523 0.616
0000a0 b0 33 75 2c b6 18 be b1 6f b4 63 b5 e3 b0 1b ac
       0.2402 0.06964 0.0023 -0.1794 -0.277 -0.3367 -0.1527 -0.06415
0000b0 e0 b3 20 b6 83 36 fe 36 16 3b 71 b9 ed b4 f6 b0
       -0.2461 -0.3828 0.407 0.437 0.8857 -0.68 -0.3079 -0.155
0000c0 fc b3 39 b6 db b5 40 34 14 3a 64 2f 32 bc 23 ba
       -0.2495 -0.389 -0.366 0.2656 0.76 0.1155 -1.049 -0.767
0000d0 68 38 7a b9 1f b1 d4 b8 dc 3c 62 ac ff 39 ee ad
       0.551 -0.6846 -0.16 -0.6035 1.215 -0.0685 0.7495 -0.09265
0000e0 52 b0 f7 c0 69 3a 8b 28 af 2e f6 35 b3 37 ce b1
       -0.135 -2.482 0.8013 0.0355 0.10443 0.3726 0.4812 -0.1814
0000f0 75 3f fb 32 9b 34 bc 24 10 b6 a8 b9 6a b0 6e b1
       1.864 0.2181 0.2878 0.0185 -0.379 -0.707 -0.138 -0.1697
000100 f3 35 3c 2f fe a0 0f be 89 40 a7 b2 b8 b6 68 40
       0.3718 0.11304 -0.00975 -1.515 2.268 -0.2079 -0.42 2.203
000110 bc af 7f 40 28 ac e1 a9 28 b4 bb bc be b1 47 b2
       -0.12085 2.248 -0.06494 -0.04593 -0.2598 -1.183 -0.1794 -0.1962
000120 01 36 62 af 87 30 f2 b6 97 40 3c 35 5a bd b7 b3
       0.3752 -0.11536 0.1415 -0.434 2.295 0.3271 -1.338 -0.2411
000130 5b b9 08 36 ce 30 c0 bc a2 40 46 2b 59 b6 83 3d
       -0.6694 0.377 0.1501 -1.1875 2.316 0.05682 -0.3967 1.378
000140 08 ae 95 b7 9e be 5c 29 1c 3d 73 3d da b6 03 33
       -0.09424 -0.4739 -1.654 0.04187 1.277 1.362 -0.4282 0.2191
000150 13 a6 d7 36 9a b8 b5 ba 22 b4 52 ab 86 32 6e b5
       -0.02373 0.4275 -0.575 -0.8384 -0.2583 -0.0572 0.2039 -0.3394
000160 0a 24 d4 3a 6c 35 fa b1 99 b3 dc b4 c6 b2 4a a9
       0.01578 0.8535 0.3389 -0.1868 -0.2374 -0.3037 -0.2117 -0.04132
000170 8f b3 44 35 b7 ac f4 b0 38 b1 8a b4 cf 2c 22 16
       -0.2362 0.329 -0.07367 -0.1548 -0.1631 -0.2837 0.07513 0.001497
000180 a4 32 90 b2 bb 2b 2f b0 c4 9e c4 37 71 2c 13 ab
       0.2075 -0.2051 0.0604 -0.1307 -0.006607 0.4854 0.0694 -0.05527
000190 e4 32 41 bc 7b 28 c3 a0 23 26 1c b4 f6 b1 5b 30
       0.2153 -1.063 0.035 -0.0093 0.02397 -0.2568 -0.1863 0.1361
0001a0 db 2c 0b b2 c6 b3 d4 a7 a3 2f 3b b4 65 32 f7 af
       0.07587 -0.1888 -0.2429 -0.03058 0.1193 -0.2644 0.1998 -0.12445
0001b0 65 32 5e a7 44 b2 c3 2e 27 18 74 2c 22 36 b4 35
       0.1998 -0.02878 -0.1958 0.10565 0.002028 0.0696 0.3833 0.3564
0001c0 6a 30 83 ac 3e b5 46 b3 3a bc 46 38 4f b4 ac b3
       0.138 -0.0705 -0.3276 -0.2273 -1.057 0.534 -0.2693 -0.2397
0001d0 78 b6 9a 31 bf b0 78 2e fe a6 c3 ac b7 b8 0d b1
       -0.4043 0.175 -0.1483 0.1011 -0.02731 -0.0744 -0.5894 -0.1578
0001e0 f8 39 98 27 c1 2f 22 38 d5 ab b4 34 f6 aa c6 3a
       0.746 0.02966 0.12115 0.5166 -0.0612 0.294 -0.05438 0.8467
0001f0 b9 a9 34 33 e2 b4 e4 34 37 28 f4 b8 69 2c 35 37
       -0.0447 0.2251 -0.3052 0.3057 0.03293 -0.619 0.0689 0.4504

depthwise_conv2d_2/Bias f2 [88]
000000 17 40 f3 2c 2b 3c 16 c0 ad 32 e3 a9 2d 42 50 b2
       2.045 0.07733 1.042 -2.043 0.2086 -0.046 3.088 -0.1973
000010 bb 3c 5f 30 f8 3f b1 be 6b b5 16 a1 21 3e 86 41
       1.183 0.1366 1.992 -1.673 -0.3386 -0.00993 1.532 2.762
000020 76 31 2e 41 47 b9 3f 30 16 ab 1d 40 0f 29 67 3d
       0.1707 2.59 -0.6597 0.1327 -0.05536 2.057 0.03952 1.351
000030 fe 28 a7 44 35 35 09 bc 35 bb af 38 70 31 c7 b3
       0.039 4.652 0.3254 -1.009 -0.901 0.5854 0.1699 -0.243
000040 3b b7 ac b5 56 3c ce 34 a8 3e 3b 33 c6 b7 63 bb
       -0.452 -0.3545 1.084 0.3003 1.664 0.226 -0.4858 -0.9233
000050 85 bb c4 b9 e0 3f 61 b2 20 b6 c3 3c 52 b7 ab ae
       -0.94 -0.7207 1.969 -0.1993 -0.3828 1.19 -0.4575 -0.1042
000060 7b aa 14 b4 6f ad 8d ac 93 42 89 35 6e 42 fd 24
       -0.05063 -0.255 -0.0849 -0.0711 3.287 0.346 3.215 0.01949
000070 65 bc 14 a6 e7 bb dc b1 a1 ab 50 a8 b9 39 af b7
       -1.099 -0.02374 -0.988 -0.1831 -0.0596 -0.0337 0.7153 -0.4802
000080 40 39 b8 b8 dc 2e 90 ab b4 ba ca b0 e6 3e 6f bc
       0.6562 -0.59 0.1072 -0.05908 -0.838 -0.1497 1.725 -1.108
000090 50 42 d9 32 c9 ab 45 3b 6d 3c ae 3e 67 3c 82 a0
       3.156 0.214 -0.06082 0.9087 1.106 1.67 1.101 -0.008804
0000a0 cb 34 4d 39 5b 3a 55 be da 40 d7 3d 5d 23 8a 40
       0.2996 0.6626 0.7944 -1.583 2.426 1.46 0.01438 2.27

conv2d_8/Kernel f2 [24, 1, 1, 88]
000000 a8 33 d8 2f 93 b0 49 34 3e 2f 98 22 59 35 4f b4
       0.2393 0.12256 -0.143 0.2678 0.11316 0.01288 0.3342 -0.2693
000010 b0 b3 dd b0 d4 33 04 31 aa 29 3d b6 3a ad 64 2c
       -0.2402 -0.152 0.2446 0.1567 0.04425 -0.39 -0.08167 0.0686
000020 40 a6 07 ae 2d b0 47 31 01 b1 98 27 6f 31 ef 30
       -0.02441 -0.0942 -0.1305 0.1649 -0.1564 0.02966 0.1698 0.1542
000030 ef b4 3e 8c fc a8 1b 2c fa b5 07 28 99 a3 ba b3
       -0.3083 -0.000259 -0.03894 0.06415 -0.3735 0.03146 -0.01484 -0.2415
000040 3c 2e 38 23 74 b1 19 b0 ed b1 1c 36 a0 b6 50 34
       0.0974 0.0141 -0.1704 -0.128 -0.1852 0.3818 -0.414 0.2695
000050 72 30 1e ab 49 a7 c6 30 f0 37 c2 31 56 b3 9f 2f
       0.1389 -0.0556 -0.02846 0.1492 0.496 0.1799 -0.2292 0.1191
000060 70 b6 66 20 05 b8 7b 32 3b b6 f8 b6 a2 2f 41 b5
       -0.4023 0.00859 -0.5024 0.2025 -0.3894 -0.4355 0.11926 -0.3284
000070 8a b2 58 b7 03 34 91 35 f5 33 aa b2 29 a1 20 2f
       -0.2043 -0.459 0.2507 0.348 0.2487 -0.2083 -0.01008 0.1113
000080 1e 18 32 34 fd b5 2a a7 16 ad 60 20 0f b1 81 b6
       0.00201 0.2622 -0.3743 -0.02798 -0.07947 0.008545 -0.1581 -0.4065
000090 e4 31 96 35 0d b2 68 36 17 35 59 ad be ae 68 ac
       0.1841 0.349 -0.1891 0.4004 0.318 -0.08356 -0.10535 -0.06885
0000a0 f4 2e 20 ab cb 9c 15 2d 1a b8 49 b1 09 30 dd 33
       0.10864 -0.05566 -0.00468 0.0794 -0.5127 -0.1652 0.1261 0.2457
0000b0 4e b1 20 2c 92 29 b3 2d 56 28 9e 2d e4 30 6a 17
       -0.1658 0.06445 0.04352 0.08905 0.03387 0.08777 0.1528 0.00181
0000c0 04 a1 e1 ae f9 28 41 2e a0 2c 99 27 d7 28 a9 a8
       -0.009796 -0.1075 0.03885 0.0977 0.07227 0.02968 0.0378 -0.0364
0000d0 9f 8d ab 26 94 9e 23 29 fe b1 b4 2f 3b 9f 2a b5
       -0.000343 0.02605 -0.006424 0.04013 -0.1873 0.12036 -0.00706 -0.3228
0000e0 80 a1 22 af 7f a6 8f 33 05 a1 27 ae 49 a5 dc ab
       -0.01074 -0.11145 -0.02538 0.2362 -0.0098 -0.0961 -0.02065 -0.0614
0000f0 51 1c 0b a9 cb 30 64 b0 52 ac b8 b0 9d 30 29 b4
       0.004215 -0.0394 0.1498 -0.1372 -0.0675 -0.1475 0.1442 -0.26
000100 e2 1e bf b0 a7 af 47 b0 17 2c 5f 33 b4 a2 17 b1
       0.00672 -0.1483 -0.11957 -0.1337 0.0639 0.2303 -0.01309 -0.159
000110 aa ac 0c b2 86 a3 b8 ae 53 b4 32 a0 9e 28 3c ad
       -0.0729 -0.189 -0.014694 -0.105 -0.2703 -0.008194 0.03607 -0.0818
000120 f7 ad 3c 1c 26 ac 9c ad 24 21 78 aa df 2f 66 9b
       -0.0932 0.004135 -0.0648 -0.08765 0.01004 -0.05054 0.123 -0.003613
000130 9f 31 41 b1 41 b0 b1 31 48 34 15 34 20 ac 89 a5
       0.1757 -0.1642 -0.1329 0.1779 0.2676 0.2551 -0.06445 -0.02162
000140 5c 30 db a4 a1 35 9c 2e ab 94 be b2 b4 24 6f 2d
       0.1362 -0.01897 0.3518 0.1033 -0.00114 -0.2107 0.01837 0.0849
000150 06 2e 10 2e 40 af 02 28 4a b4 9e 34 b6 a7 cd 30
       0.0941 0.0947 -0.1133 0.0313 -0.268 0.2886 -0.03012 0.15
000160 76 34 c1 33 57 30 45 b1 ae 31 59 34 f6 ab 96 35
       0.2788 0.2423 0.1356 -0.1647 0.1775 0.2717 -0.0622 0.349
000170 a5 b5 24 af 49 26 2b 36 d4 28 e1 a0 0d 30 24 a3
       -0.3528 -0.1116 0.02455 0.3855 0.03772 -0.00953 0.1266 -0.01395
000180 d4 34 e5 a4 13 2f 6a ae ba a0 0e 15 7f aa 25 30
       0.3018 -0.01912 0.11053 -0.1002 -0.00923 0.001234 -0.05075 0.1295
000190 08 34 c7 30 77 b0 4e ab 10 a6 8f ad 1f 2d 23 28
       0.252 0.1493 -0.1395 -0.05707 -0.02368 -0.08685 0.08 0.03232
0001a0 4e 9f 3d 31 bd 24 34 32 28 1f d1 b1 43 2f 05 32
       -0.007133 0.1637 0.01851 0.1938 0.00699 -0.1818 0.11346 0.1881
0001b0 db a7 99 98 2e b1 b2 30 b0 b3 47 2b 8b 35 62 b6
       -0.03069 -0.002245 -0.1619 0.1467 -0.2402 0.05685 0.3464 -0.399
0001c0 7a 34 ce 9d a7 34 71 28 ad b2 ed b5 fa ae b8 35
       0.2798 -0.00567 0.2908 0.0347 -0.2086 -0.3704 -0.109 0.3574
0001d0 7f b4 43 34 a1 30 27 30 04 b4 ef ad e7 b4 a4 33
       -0.281 0.2664 0.1447 0.1298 -0.251 -0.0927 -0.3064 0.2388
0001e0 5e ac bb 33 c9 34 53 32 63 b3 32 a8 1c ad 19 2c
       -0.06824 0.2416 0.299 0.1976 -0.2308 -0.03278 -0.07983 0.064
0001f0 84 b0 c9 27 87 af 05 b8 fa 34 a4 2e 6b a1 98 23
       -0.1411 0.03041 -0.1176 -0.5024 0.311 0.10376 -0.01058 0.01483

conv2d_8/Bias f2 [24]
000000 2c 3d 27 3a cf b9 18 bc a4 3a 00 bf bb bd 1e 41
       1.293 0.769 -0.726 -1.023 0.83 -1.75 -1.433 2.559
000010 b2 3d e3 b3 06 3e d8 b8 aa 40 4e b5 ed 37 df b9
       1.424 -0.2465 1.506 -0.6055 2.332 -0.3315 0.4954 -0.734
000020 34 b1 46 39 4a b5 1e bc 24 42 2f be ea be 90 be
       -0.1626 0.659 -0.3306 -1.029 3.07 -1.546 -1.729 -1.641
